code/pretrained_models/reward_models/ackley10.pt (torch, 14943 bytes, 5 tensors)

net.0.weight f4 [50, 11]
-0.102796614 -0.19019839 -0.27616075 -0.07205182 -0.11239949 0.10549879 0.16405997 0.20041013
0.044591486 0.0033244991 0.0076706507 0.0008548281 0.18528558 0.034968805 0.082931355 -0.0040743197
-0.054016285 0.17394835 -0.23632786 -0.09066214 -0.23407814 0.0465784 -0.15328598 -0.06857756
0.1202429 0.13020445 0.1471927 -0.028734203 0.18079744 0.061365917 -0.0027002036 0.24904554
0.023136018 0.02681954 -0.11771935 0.1314204 0.15831886 -0.0039327973 -0.12980115 -0.15495653
0.008319167 -0.20785365 -0.09354858 0.14849553 0.17855652 0.014126116 0.036243968 -0.18745513
-0.12849835 -0.11593446 -0.038008783 -0.036883038 -0.08968395 -0.15169466 -0.18167576 -0.21586154
-0.034131274 0.100795865 0.012250487 -0.11402685 0.17737974 0.07958412 0.019959267 0.13587658
-0.23783354 -0.043994766 -0.14995787 0.14886232 0.0069064754 -0.09775028 -0.18870918 0.23445676
-0.15388888 -0.14404522 -0.18848519 0.06830841 -0.09363812 0.1310157 0.1002321 -0.13312435
-0.23746814 0.0772339 -0.14559743 0.20063266 -0.0025285406 0.14087187 -0.09319202 0.05650509
0.027947636 -0.06587049 0.029017424 0.2628772 -0.14622465 0.021445151 -0.054157656 -0.030849773
-0.12276075 -0.036662493 0.07302434 0.193789 0.07022938 0.062868096 0.20224784 -0.079989776
0.0880619 0.08560306 0.039327957 -0.119481854 0.030292517 -0.037445962 0.24536252 0.041779745
-0.0907616 0.1838285 0.026152931 -0.05793918 -0.16134852 0.12642314 0.18602078 0.01112172
-0.19421835 -0.05847982 0.22665943 0.07397951 -0.13536812 0.13353068 0.021009034 0.012800312
0.076510355 -0.21471693 0.14204793 -0.07598813 0.16068171 -0.05991597 0.21247767 -0.21384384
-0.18109281 -0.04696745 -0.06996839 -0.23017621 0.2068927 0.18848263 0.07276617 0.006695166
-0.049283087 0.1413486 0.0023739156 -0.11019126 -0.03039234 0.053195026 -0.061081674 -0.22470985
0.12021659 -0.100969955 -0.105266795 0.20159675 -0.0030775259 0.02586477 0.048530232 0.23857073
-0.18326698 -0.01925015 0.098118365 -0.16644509 -0.07021238 0.073484376 -0.06856633 0.033238232
-0.025901267 -0.1612367 0.08569292 -0.24308886 0.12901472 -0.22201091 0.057512846 0.01814115
0.114640415 0.042688783 -0.034307435 0.15813236 0.027818114 -0.18656155 0.16650839 0.1490806
-0.027684864 -0.15838954 -0.096031964 0.10229463 -0.10743617 0.21009435 -0.20405665 0.12147316
0.052447412 0.0063934843 0.05674233 -0.07282633 0.008343549 0.050040856 0.01127369 0.082346804
-0.16832817 0.0075592874 -0.097556 0.16060552 0.043798145 0.13490872 0.104777664 0.044911273
-0.110810444 -0.03930641 -0.0134858405 -0.0011892978 -0.005742414 0.1206728 0.111342385 -0.053286403
0.10596058 -0.0403898 -0.09626333 -0.09020475 -0.14530894 -0.016842933 -0.18430349 0.14679672
-0.12758376 -0.26447237 0.024370035 0.20831083 -0.15549631 0.107957676 -0.02257363 -0.17314015
0.011893994 -0.1410815 -0.08710583 -0.20405169 -0.13177797 0.03596538 0.018309768 0.13771194
0.07496484 0.13698255 -0.09813222 -0.06263872 0.01778006 -0.07632342 0.07653151 0.04702902
0.06281244 -0.22874238 -0.17597353 -0.17846327 -0.18450156 -0.16917595 0.07949903 0.071621835
00000000: 0887 d2bd 5ec3 42be f164 8dbe e88f 93bd
00000010: b431 e6bd c00f d83d 56ff 273e 5038 4d3e
00000020: 90a5 363d d7df 593b 155a fb3b 8b16 603a
00000030: 81bb 3d3e 733b 0f3d ead7 a93d df81 85bb
00000040: 2e40 5dbd 841f 323e eeff 71be 12ad b9bd
00000050: 2eb2 6fbe fec8 3e3d 00f7 1cbe 6472 8cbd
00000060: e941 f63d 5154 053e afb9 163e fe63 ebbc
00000070: f722 393e d45a 7b3d e6f5 30bb cb05 7f3e
00000080: bf87 bd3c a7b4 db3c d816 f1bd 1293 063e
00000090: 571e 223e b2de 80bb 98ea 04be edac 1ebe
000000a0: 1e4d 083c 96d7 54be 6696 bfbd 360f 183e
000000b0: 85d7 363e 3a71 673c 8e74 143d 3df4 3fbe
000000c0: 1295 03be 0c6f edbd 19af 1bbd ab12 17bd
000000d0: 38ac b7bd d855 1bbe 3609 3abe cf0a 5dbe
000000e0: 3ccd 0bbd 106e ce3d 44b6 483c e986 e9bd
000000f0: 09a3 353e 00fd a23d 9e81 a33c 3b23 0b3e
00000100: a38a 73be db33 34bd 8e8e 19be 5d6f 183e
00000110: b74f e23b 4c31 c8bd fb3c 41be 6f15 703e
00000120: 0c95 1dbe 9780 13be 4302 41be 48e5 8b3d
00000130: 58c5 bfbd fb28 063e 7d46 cd3d c051 08be
00000140: d92a 73be cf2c 9e3d 7e17 15be a672 4d3e
00000150: dfb5 25bb b740 103e 75db bebd e271 673d
00000160: 71f2 e43c 1ce7 86bd f3b5 ed3c d797 863e
00000170: eabb 15be bead af3c 6bd4 5dbd aab8 fcbc
00000180: fd69 fbbd 692b 16bd c98d 953d a070 463e
00000190: 6cd4 8f3d fdc0 803d 0f1a 4f3e aed1 a3bd
000001a0: cc59 b43d a850 af3d 5a16 213d e7b2 f4bd
000001b0: 0328 f83c f060 19bd 5040 7b3e 3d21 2b3d
000001c0: 38e1 b9bd 8a3d 3c3e ac3e d63c a251 6dbd
000001d0: 8c38 25be 1175 013e 3b7c 3e3e e037 363c
000001e0: 2de1 46be 8988 6fbd 6919 683e 9282 973d
000001f0: f19d 0abe 44bc 083e 231b ac3c 66b8 513c
00000200: 76b1 9c3d c1de 5bbe 0375 113e aa9f 9bbd
00000210: bf89 243e 736a 75bd bf93 593e e1f9 5abe
00000220: 6570 39be f160 40bd 964b 8fbd 50b3 6bbe
00000230: aedb 533e 9701 413e 6e06 953d 2063 db3b
00000240: 10dd 49bd b0bd 103e b293 1b3b f5ab e1bd
00000250: 5bf9 f8bc 07e3 593d c730 7abd 571a 66be
00000260: 1e34 f63d 56c9 cebd 1e96 d7bd 616f 4e3e
00000270: 51b0 49bb 5be2 d33c a3c7 463d e34b 743e
00000280: 57aa 3bbe 7eb2 9dbc 48f2 c83d 9570 2abe
00000290: 82cb 8fbd fa7e 963d 816c 8cbd d024 083d
000002a0: e52e d4bc 3c1b 25be c57f af3d 49ec 78be
000002b0: 6f1c 043e d456 63be 9792 6b3d c09c 943c
000002c0: 98c8 ea3d 6fda 2e3d f485 0cbd 73ed 213e
000002d0: d0e2 e33c fe09 3fbe 2d81 2a3e 96a8 183e
000002e0: 5ecb e2bc de30 22be 68ac c4bd d97f d13d
000002f0: 7f07 dcbd f922 573e 3af4 50be ecc6 f83d
00000300: 19d3 563d 6f80 d13b a56a 683d f925 95bd
00000310: 62b3 083c a4f7 4c3d 48b5 383c 71a5 a83d
00000320: 385e 2cbe e6b3 f73b 71cb c7bd c675 243e
00000330: af65 333d 8325 0a3e ac95 d63d e2f4 373d
00000340: 96f0 e2bd c2ff 20bd b7f3 5cbc 36e2 9bba
00000350: dc2a bcbb 4d23 f73d 7a07 e43d d842 5abd
00000360: dc01 d93d c66f 25bd b525 c5bd 45bd b8bd
00000370: decb 14be 31fa 89bc 0eba 3cbe e151 163e
00000380: 51a5 02be ec68 87be aba3 c73c 6f4f 553e
00000390: 6d3a 1fbe ea18 dd3d 55ec b8bc a74b 31be
000003a0: 07df 423c ab77 10be 8b64 b2bd edf2 50be
000003b0: cef0 06be 6f50 133d 5efe 953c 5c04 0d3e
000003c0: 2b87 993d 2745 0c3e 8cf9 c8bd bb48 80bd
000003d0: 7da7 913c 744f 9cbd 8dbc 9c3d 80a1 403d
000003e0: cfa3 803d 713b 6abe 6832 34be 13bf 36be
000003f0: faed 3cbe 763c 2dbe 63d0 a23d 78ae 923d

net.0.bias f4 [50]
0.004542284 -0.0014139755 0.003965495 0.0043481006 -0.004119146 0.0009240888 0.0062567657 -0.0030686238
-0.0031234475 -0.000532293 0.0003767651 0.0034177094 0.0024027189 -0.0006518142 -0.0014866331 0.007313816
-0.0034644292 4.6249934e-05 -0.0018986692 -0.0023371556 -0.0012197935 0.0038513914 -0.0060727037 4.0510513e-05
-0.0032125865 -0.004389357 -0.0009489219 -0.00052040955 0.002206328 0.0014562153 -0.0018693459 0.0046919645
0.0037638396 0.0017851837 0.008233409 -0.0027036916 0.0033018626 -0.0015015939 0.0014043967 0.0075926175
-0.004474069 -0.00078203686 0.0051429076 -0.0018230113 0.0054211584 -4.228311e-05 -0.0011193639 0.0022510532
0.0027915104 0.00021573638
00000000: 71d7 943b 2555 b9ba fcf0 813b 837a 8e3b
00000010: e7f9 86bb 8d3e 723a 8e05 cd3b f71a 49bb
00000020: c1b2 4cbb 9489 0bba 8e88 c539 a6fb 5f3b
00000030: ef76 1d3b 83de 2aba 21db c2ba bca8 ef3b
00000040: 7a0b 63bb 7dfc 4138 c4dc f8ba f72a 19bb
00000050: 7ae1 9fba a067 7c3b 88fd c6bb d5e9 2938
00000060: 428a 52bb 98d4 8fbb 12c1 78ba 186c 08ba
00000070: 0b98 103b 7ade be3a d704 f5ba 0dbf 993b
00000080: c0aa 763b d3fc e93a 6ce5 063c 6b30 31bb
00000090: 1064 583b 21d1 c4ba bc13 b83a 7ecb f83b
000000a0: 369b 92bb 9b01 4dba d685 a83b 1cf2 eeba
000000b0: f9a3 b13b 2559 31b8 9fb7 92ba 6886 133b
000000c0: c6f1 363b 4b37 6239

net.2.weight f4 [50, 50]
0.122106165 0.088556595 0.10009764 0.10110467 0.05304268 0.06901332 0.07244792 0.09908238
0.102058604 0.052679423 0.08273747 0.09629957 0.118027724 0.08047165 0.08333781 0.035924412
0.068970755 0.008439487 0.035204127 0.05342993 0.039796337 0.06257635 0.051896106 0.07250184
0.0073898323 0.09498523 0.04166808 0.05046401 0.09293096 0.07250296 0.0812436 0.062439967
0.071636654 0.055065632 0.07748863 0.09700984 0.08713086 0.06949156 0.13387285 0.12288397
0.05493371 0.033749674 0.07449101 0.036499906 0.051043417 0.14776501 0.12931709 0.12072566
0.07567069 0.116930544 -0.0058894027 -0.024228059 0.0050279754 0.0069191307 -0.0015153582 -0.014385934
0.025137343 -0.014929625 0.0039483667 -0.019527428 -0.0005580082 0.006019099 0.041365318 0.0040165167
0.013301557 -0.0046114265 -0.0057541598 -0.014029355 -0.00237828 -0.0022879816 0.010795445 -0.012006883
-0.015724888 0.0066655786 -0.012162659 -0.025095943 -0.00561418 0.020767841 -0.023441913 -0.015599391
-0.002556452 0.0025558244 -0.005931201 0.0028031776 -0.010459618 -0.004836299 0.04866469 0.015727846
-0.03659817 -0.015404449 0.009476583 0.00012115081 -0.02028586 -0.01073048 0.04209009 -0.013762091
0.0008600326 -0.011882142 -0.008808247 0.013395411 0.004009369 -0.0029391635 -0.0034037612 -0.0045547034
0.002234686 -0.0029928386 0.004860466 0.0012791175 -0.0012513299 0.00042408294 -0.0038667712 0.007606828
0.0044418257 0.0012796633 -0.00961784 0.0040849186 -0.006367322 -0.0008497129 0.005667329 -0.00386701
-0.009991976 -0.0015734918 0.00041455924 -0.0040000947 -0.0031537325 0.013435293 0.0024828843 0.00902348
-0.0017005987 -0.003870309 -0.0012879353 0.0012152502 0.0005384408 -0.005822041 0.008590245 0.00044402626
-0.003128545 -0.004022666 -0.00045463679 -0.0019087043 0.0048579928 0.001304929 -0.002092959 0.011249908
-0.0090159075 -0.00052783923 -0.005597566 0.0008800501 -0.0055034705 -0.0046205632 0.005672817 0.05015874
-0.024212055 0.03211527 -0.014267539 0.05426043 0.026287043 -0.008087515 0.05666491 0.008764641
0.035785083 -0.022696484 -0.04572106 0.014344504 0.025209779 0.01588861 0.028786661 -0.070140235
0.012157436 -0.0022723617 -0.017057283 0.042520437 -0.0048923693 0.013621217 -0.0133610815 0.030144809
0.069068745 -0.015921688 -0.0046081212 -0.012192631 0.03381965 0.014281462 0.010107107 0.0020773641
-0.012757233 0.019590475 0.024864648 0.011926497 0.037285037 -0.029912932 0.014145446 0.05698434
-0.028007284 0.020498198 0.0068633603 0.077209294 -0.013752047 -0.06385787 0.04329886 0.047305796
-3.5180896e-11 -6.8022706e-11 -1.0629415e-10 -8.563125e-12 -3.472414e-14 -1.2160922e-14 -3.8640025e-11 -4.8236998e-11
-1.15371664e-10 -2.297485e-11 -4.034559e-17 -1.7743883e-10 -2.2183796e-11 -1.1010116e-11 -5.763725e-11 -3.390115e-11
-1.1560844e-16 5.2049853e-14 -2.9318947e-11 -5.9967885e-11 -1.8712847e-11 -2.538917e-12 -2.3646717e-11 5.169091e-16
-2.8519e-11 5.3283638e-11 -1.8451445e-13 -1.9248059e-10 -4.436752e-11 -4.472425e-11 -6.2856323e-13 -8.083228e-12
-3.034142e-14 -6.808122e-12 -2.6943463e-12 4.0673577e-16 -6.0995514e-11 -1.9230526e-15 -3.4763223e-12 -1.9659208e-11
-1.05668626e-17 -1.735877e-11 -5.8845026e-11 -1.2956631e-11 -9.429023e-12 -7.54854e-10 -4.1505063e-11 -1.3390597e-11
-1.4299431e-10 5.1390903e-15 0.0067487084 -0.011690929 0.0043003373 0.008618995 -0.004916429 -0.01022887
00000000: cc12 fa3d 295d b53d feff cc3d f70f cf3d
00000010: 4843 593d db56 8d3d 935f 943d b4eb ca3d
00000020: 1a04 d13d 61c6 573d 4372 a93d b538 c53d
00000030: 85b8 f13d 52ce a43d 04ad aa3d 7a25 133d
00000040: 8a40 8d3d c645 0a3c 3432 103d 58d9 5a3d
00000050: 7c01 233d 0828 803d 0391 543d d87b 943d
00000060: 6826 f23b 9e87 c23d 26ac 2a3d 5ab3 4e3d
00000070: 9652 be3d 6f7c 943d 0b63 a63d 0dc1 7f3d
00000080: 3db6 923d 808c 613d 5cb2 9e3d 18ad c63d
00000090: aa71 b23d 9751 8e3d f715 093e 97aa fb3d
000000a0: 2b02 613d 193d 0a3d be8e 983d ed80 153d
000000b0: e712 513d b64f 173e b36b 043e 043f f73d
000000c0: 3cf9 9a3d 4879 ef3d e4fb c0bb ec79 c6bc
000000d0: b7c1 a43b e0b9 e23b fc9e c6ba fbb2 6bbc
000000e0: d4ec cd3c 639b 74bc 4d61 813b fcf7 9fbc
000000f0: 4c47 12ba dd3b c53b ae6e 293d fc9c 833b
00000100: c6ee 593c 731b 97bb 648d bcbb 61db 65bc
00000110: ebdc 1bbb f6f1 15bb 61df 303c 84b8 44bc
00000120: 7bd1 80bc ed6a da3b e445 47bc 0296 cdbc
00000130: 28f7 b7bb 5221 aa3c 4109 c0bc 9794 7fbc
00000140: 268a 27bb 9e7f 273b 855a c2bb 84b5 373b
00000150: d15e 2bbc d179 9ebb a054 473d afd7 803c
00000160: f6e7 15bd f162 7cbc ac43 1b3c 5912 fe38
00000170: 882e a6bc e5ce 2fbc a966 2c3d 657a 61bc
00000180: d073 613a 51ad 42bc 7750 10bc 6d78 5b3c
00000190: 0661 833b fb9e 40bb a311 5fbb 9f3f 95bb
000001a0: cf73 123b 8023 44bb 8b44 9f3b 10a8 a73a
000001b0: aa03 a4ba 7357 de39 a869 7dbb b342 f93b
000001c0: bc8c 913b 60ba a73a 2594 1dbc c8da 853b
000001d0: f8a4 d0bb 44bf 5eba 00b5 b93b a96d 7dbb
000001e0: 63b5 23bc a03d ceba 3359 d939 3a13 83bb
000001f0: daae 4ebb b41f 5c3c e3b7 223b 38d7 133c
00000200: a0e6 deba 03a5 7dbb f0cf a8ba 0849 9f3a
00000210: 2726 0d3a d2c6 bebb 19be 0c3c 32cc e839
00000220: 4608 4dbb 91d0 83bb 515c eeb9 7d2d faba
00000230: cc2f 9f3b 270a ab3a 062a 09bb 8951 383c
00000240: 75b7 13bc b15e 0aba c96b b7bb 2ab3 663a
00000250: 7556 b4bb 1868 97bb 0ae3 b93b 4073 4d3d
00000260: 5c58 c6bc 4d8b 033d 65c2 69bc 2f40 5e3d
00000270: ed57 d73c 7f81 04bc 7719 683d 9299 0f3c
00000280: 6193 123d faed b9bc 0246 3bbd 3605 6b3c
00000290: bd84 ce3c d528 823c 01d2 eb3c afa5 8fbd
000002a0: fc2f 473c e7eb 14bb b7bb 8bbc e929 2e3d
000002b0: 2b50 a0bb 862b 5f3c 70e8 5abc 3ff2 f63c
000002c0: ea73 8d3d 336e 82bc b9ff 96bb 9ac3 47bc
000002d0: 7986 0a3d cbfc 693c 4898 253c 6324 083b
000002e0: b703 51bc 347c a03c f2b0 cb3c 5b67 433c
000002f0: 32b8 183d f70b f5bc 4dc2 673c 6968 693d
00000300: 886f e5bc d6eb a73c 0ae6 e03b e81f 9e3d
00000310: 4450 61bc eac7 82bd 255a 313d b9c3 413d
00000320: 2bba 1aae 6195 95ae 49be e9ae e3a4 16ad
00000330: 3562 1ca9 5b12 5ba8 cdf0 29ae 0826 54ae
00000340: 79b4 fdae c316 caad aa0f 3aa4 9718 43af
00000350: 7821 c3ad 28b1 41ad c67d 7dae 4d19 15ae
00000360: 9749 05a5 6569 6a29 33f2 00ae ebde 83ae
00000370: 9699 a4ad 10a9 32ac acff cfad 29fd 1426
00000380: 14db faad 0b58 6a2e abbe 4faa 78a2 53af
00000390: 6321 43ae 07b3 44ae c1ec 30ab 9f33 0ead
000003a0: 47a5 08a9 1d8a efac 0799 3dac 9b77 ea25
000003b0: 6c21 86ae 0f92 0aa7 db9f 74ac 9aec acad
000003c0: 99ec 42a3 7ab0 98ad ce66 81ae 7bef 63ad
000003d0: 8be0 25ad 217e 4fb0 8c8a 36ae e391 6bad
000003e0: 5239 1daf be27 b927 4524 dd3b 4f8b 3fbc
000003f0: d8e9 8c3b af36 0d3c ff19 a1bb fe96 27bc

net.2.bias f4 [50]
3.801473e-08 -0.0008621415 0.00014490535 -0.008015305 -1.392351e-11 -0.00066418917 4.531314e-08 0.00017310424
-0.0047965283 -9.87253e-07 5.1823e-41 -0.0026403968 4.909432e-08 1.1107e-41 -1.73642e-40 -0.00850121
-9.476882e-12 0.00033973908 -0.009373141 0.0006825458 -0.008981431 -1.132152e-39 2.2548193e-08 0.00045669824
3.8676234e-08 -0.007807676 -8.0074993e-13 -0.01049497 0.00037280534 5.2484e-41 -0.003922898 -2.2046474e-05
4.228735e-08 -0.00033806078 -0.010340413 2.3143105e-08 -2.98177e-40 4.814838e-08 3.370627e-08 -0.0069049816
-0.0057063983 -2.0607e-41 -9.423053e-22 -0.009320795 -0.0041549145 -0.0042840713 2.380218e-08 -0.004706066
-0.011724171 9.1464e-41
00000000: a345 2333 5601 62ba bcf1 1739 a052 03bc
00000010: eaf1 74ad fb1c 2eba 539e 4233 5183 3539
00000020: 322c 9dbb c181 84b5 7690 0000 820a 2dbb
00000030: c7db 5233 f61e 0000 0be4 0180 a948 0bbc
00000040: 15b8 26ad 021f b239 ce91 19bc e0ec 323a
00000050: da26 13bc fb53 0c80 00b0 c132 0071 ef39
00000060: f81c 2633 89d7 ffbb 1d64 61ab 18f3 2bbc
00000070: 1675 c339 4e92 0000 a78b 80bb 71f0 b8b7
00000080: 6f9f 3533 c03d b1b9 d66a 29bc 3acc c632
00000090: 323f 0380 b4cb 4e33 70c4 1033 2f43 e2bb
000000a0: bdfc babb 7239 0080 ac65 8e9c 3fb6 18bc
000000b0: f325 88bb 6561 8cbb 8c75 cc32 5835 9abb
000000c0: bd16 40bc f7fe 0000

net.4.weight f4 [1, 50]
-0.44818372 -0.101666145 0.032465853 -0.17867748 1.6473848e-08 -0.04558272 -0.57937574 0.01928332
-0.26776037 0.0064852014 -9.912039e-05 -0.08402114 -0.62032187 0.00066408067 -3.9901597e-06 -0.24499066
-3.57844e-10 0.015276778 -0.2498508 0.030967673 -0.34241503 -3.0847314e-05 4.7647654e-06 0.020642783
-0.45771712 -0.28172156 0.0027308064 -0.22639452 0.02770599 -0.00012684603 -0.16649751 0.028489944
-0.5506888 -0.010012135 -0.25250167 -0.30926898 0.0008545716 -0.62399745 -0.48995525 -0.2508529
-0.2676903 0.00047508194 1.1688456e-05 -0.28613743 -0.22064562 -0.2019385 -0.36150023 -0.16273236
-0.30918035 -0.00018272475
00000000: 5678 e5be 5736 d0bd eafa 043d 3bf7 36be
00000010: 6082 8d32 f2b4 3abd f851 14bf 0ef8 9d3c
00000020: e317 89be d081 d43b dbde cfb8 4713 acbd
00000030: 6acd 1ebf b315 2e3a 36e3 85b6 d5de 7abe
00000040: 11ba c4af 734b 7a3c e3d8 7fbe ebaf fd3c
00000050: 0651 afbe 0d62 01b8 06e1 9f36 0e1b a93c
00000060: e659 eabe cf3d 90be 54f7 323b f7d3 67be
00000070: acf7 e23c f901 05b9 537e 2abe be63 e93c
00000080: f1f9 0cbf f009 24bc e647 81be 8158 9ebe
00000090: 5405 603a 4cbe 1fbf 6adb fabe cb6f 80be
000000a0: b40e 89be 6b14 f939 8919 4437 9b80 92be
000000b0: edf0 61be f7c8 4ebe 8f16 b9be 50a3 26be
000000c0: e34c 9ebe cd99 3fb9
