code/pretrained_models/reward_models/hartmann6.pt (torch, 14119 bytes, 5 tensors)

net.0.weight f4 [50, 7]
00000000: aaa4 c6bd 9e79 10bd cd17 153d cb54 4d3e
00000010: d9ca f43e 20c9 7dbd 1c63 b73b 9ba6 983d
00000020: 225d 893c a30f 56bf 8706 73bd 44e6 983d
00000030: f052 983c 67e7 09bd 9eed 0080 54b0 0080
00000040: ee07 0180 9b76 0100 bf15 0180 c07a 0180
00000050: b007 0000 f196 babe b8a8 ff3c 8596 333e
00000060: 4bb8 083e 2602 1d3e 3438 6dbe 95fa efbc
00000070: 54a1 d43d 68bc e73d 2229 13ba a785 b83d
00000080: c03e b23d e331 6bbf 8e3a d1bc fc45 543d
00000090: 3be0 1bbd 8635 543d 5746 1a3f 7193 f8bd
000000a0: ebd1 573d 4780 703c 5c1d 0080 0883 0080
000000b0: b149 0000 4338 0080 a77d 0080 f30b 0000
000000c0: 2c02 0000 ee43 32be 5588 68be 711f 363d
000000d0: 0bef ff3c 8a93 ccbe 42e6 a03d 10be 7f3d
000000e0: 1e1b 4c3d 4fdb c6bb 2e42 363d f388 8b3c
000000f0: 8b7b d5bb 07bd 0c3f c3cc fb3c aa6e cb3c
00000100: fa5c 3e3f 8fc3 9e3a 8377 543d eb58 11bc
00000110: 931f f53d 3253 053c 0f87 a33d bd0c 883b
00000120: 83fa d03e 9f69 f4bb be85 e8bb 8692 fb3c
00000130: 1532 47bc 8616 5a80 34a1 3108 4c4b 2001
00000140: 654e 9a8f afbd 4602 e5d3 8695 cb0b 4a80
00000150: 19aa 15bd 4bf3 b03d 383c 3d3d ba49 51bf
00000160: 2939 b53d fbc7 2f3d aaa8 a4bc e590 d9bd
00000170: c110 a43c 525e 1ebe e5c7 e6be d547 0ebe
00000180: 0ce5 f3bd 17bf 293d 7fb0 cbbd 5928 aebd
00000190: 0e6a 8bbc f868 bd3b 23c6 42bf 3c12 f4bc
000001a0: 85cb d2bc 0f91 d0bd 850b 843d a573 db3e
000001b0: c15a 7cbe 69f8 35bd ee24 ab3c 7818 14bc
000001c0: d952 fc3d 144f bebd 70f5 db3d 858d 12bf
000001d0: bf67 8d3d 6bfe debd 28d1 493c 340d f934
000001e0: a695 0137 518c 0bb6 faec dbb5 aa72 a9b5
000001f0: d0be d1b5 7ce9 142e b41f 5dbf 987a cabc
00000200: 5431 e2bb 8853 e83c 4a84 bdbc e56b 873d
00000210: b34d 963b 9ca3 8c3e af73 36be 1c21 acbe
00000220: 9a26 13bc beed 063e 7cb1 a0bc ed6e c0bc
00000230: 489e 0280 6349 0480 9998 0480 656b 1880
00000240: 816c 0380 f69d 0480 5cc4 0000 7104 e93d
00000250: e717 afbd aa09 083f 082e 74bc fe4c 8abd
00000260: 31b3 9d3c fd96 47bd 562b 783d 9d48 78bf
00000270: 6f69 e03c afc4 043e 0b5c 693a bf23 933d
00000280: 76ea f7bc 9619 0100 babe 0080 46dc 0180
00000290: 9a9e 0000 3f70 0480 a1f3 0000 0577 0180
000002a0: 53ba 0000 c632 0080 f340 0080 157e 0000
000002b0: e257 0080 1f37 0000 1da5 0000 2335 0080
000002c0: 6808 0000 4336 0080 bc04 0100 b497 0080
000002d0: c92b 0000 caa7 0000 e934 c7bc b240 653e
000002e0: 2aee 223e 8691 0b3d f98a 58be cc7b 21be
000002f0: c153 9d3c e6f9 943e a26f 5b3e c9aa 693e
00000300: 3fb9 dabd 9a77 4abe 2873 b0be ed6b 163d
00000310: 1f8d 7802 ae71 6384 4be6 1b03 e7b5 2604
00000320: 2640 9784 21a0 9883 1578 0c03 1bb2 803e
00000330: 8e70 b9bc 9611 303e 2400 1abd 6669 b73e
00000340: eb6f a93b bdc9 193d a1c2 0180 72c9 0000
00000350: 6c87 0180 93d1 0080 5fd9 0180 4d85 0080
00000360: 0909 0000 48b2 0080 a484 0280 de7c 0100
00000370: 895c 0180 f26d 0180 ce8e 0080 7c3c 0100
00000380: 37b2 4ebd f520 083d d4c7 9bbd d696 34bd
00000390: d8d4 253f c43d 533d ad7d 5d3c c6bb 1d8c
000003a0: e3c9 ca8a 138f 7991 aea6 d58c 6b49 9082
000003b0: be73 0e83 7c23 0000 798e 0080 6b64 0000
000003c0: 8e89 0080 aa10 0080 b704 0000 7e5d 0080
000003d0: d40f 0000 7c94 da91 7019 e491 c512 8092
000003e0: 1cad b011 8bb2 8c91 251b 1b92 91dd 0411
000003f0: eef2 df3d f380 ce3d 2fde 283d c130 133d
-0.09699376 -0.035272233 0.03639965 0.20051877 0.4781101 -0.061959386 0.0055965316 0.074536525
0.016768042 -0.8361761 -0.059332397 0.07465795 0.018594235 -0.033667948 -8.5241e-41 -6.3255e-41
-9.468e-41 1.34383e-40 -9.9637e-41 -1.3587e-40 2.758e-42 -0.36443284 0.031208381 0.17537887
0.13351552 0.15332851 -0.23165971 -0.029294292 0.103823334 0.113152325 -0.0005613734 0.09009867
0.08703375 -0.91872996 -0.025540616 0.051824555 -0.03805564 0.051808856 0.6026358 -0.12137497
0.052690428 0.014679021 -1.0532e-41 -4.7005e-41 2.6435e-41 -2.0183e-41 -4.5076e-41 4.287e-42
7.79e-43 -0.17408726 -0.22708257 0.04446358 0.031241914 -0.39956313 0.07856418 0.062437117
0.04983055 -0.006068624 0.044496708 0.017033076 -0.0065149716 0.5497593 0.030737286 0.024833042
0.7436062 0.0012112724 0.051871788 -0.008871297 0.11968913 0.008137511 0.07984745 0.004151909
0.40816125 -0.00745888 -0.0070960214 0.030709516 -0.012157937 -8.273275e-39 5.3453493e-34 2.9441382e-38
-1.5215769e-29 1.4601179e-37 -5.445648e-26 -6.800057e-39 -0.03653917 0.086401545 0.046200007 -0.8175312
0.08848793 0.042915326 -0.020099957 -0.106233396 0.02002752 -0.15465668 -0.45074382 -0.13894589
-0.119089216 0.041442003 -0.09945773 -0.085037895 -0.017018344 0.0057803355 -0.7608358 -0.029793851
-0.025731811 -0.10183918 0.0644751 0.42861667 -0.24643995 -0.044426356 0.020891633 -0.009039037
0.123204894 -0.09292427 0.10740173 -0.5724719 0.069045536 -0.1088837 0.012317933 4.638947e-07
7.723842e-06 -2.079429e-06 -1.6385741e-06 -1.2624853e-06 -1.5627247e-06 3.385868e-11 -0.863765 -0.02471666
-0.006902853 0.028360143 -0.02313437 0.06612376 0.004586899 0.27468574 -0.17817567 -0.3361901
-0.008981371 0.13176629 -0.019615881 -0.023490394 -2.40452e-40 -3.93668e-40 -4.22084e-40 -2.242578e-39
-3.1443e-40 -4.24008e-40 7.044e-41 0.113778 -0.08549481 0.53139746 -0.014903553 -0.06752966
0.019250484 -0.048727978 0.060588203 -0.969858 0.027394025 0.12965654 0.000890196 0.071845524
-0.030263167 1.01014e-40 -6.842e-41 -1.70855e-40 5.6896e-41 -4.07608e-40 8.7398e-41 -1.34532e-40
6.684e-41 -1.8214e-41 -2.33e-41 4.523e-41 -3.1526e-41 1.9774e-41 5.9231e-41 -1.9062e-41
3.016e-42 -1.9465e-41 9.3534e-41 -5.4421e-41 1.5707e-41 6.0191e-41 -0.024317222 0.2238796
0.15911165 0.03407433 -0.21146764 -0.15769881 0.019204976 0.29096907 0.21429303 0.22819056
-0.10679864 -0.19772187 -0.34462857 0.03672402 1.8260662e-37 -2.6735921e-36 4.581477e-37 1.9596732e-36
-3.555884e-36 -8.970521e-37 4.128015e-37 0.25135884 -0.022636678 0.17194209 -0.03759779 0.358226
0.0051708124 0.03754591 -1.61655e-40 7.2265e-41 -1.40416e-40 -7.5181e-41 -1.69814e-40 -4.782e-41
3.241e-42 -6.3955e-41 -2.31253e-40 1.3663e-40 -1.25031e-40 -1.31276e-40 -5.1229e-41 1.13533e-40
-0.050462928 0.033234555 -0.076064736 -0.04408916 0.647779 0.051572576 0.013518733 -1.2151346e-31
-1.9527834e-32 -1.9686725e-28 -3.2918163e-31 -2.1201038e-37 -4.1862915e-37 1.273e-41 -5.111e-41 3.6023e-41
-4.9345e-41 -5.978e-42 1.691e-42 -3.3539e-41 5.678e-42 -3.4485846e-28 -3.5987734e-28 -8.082563e-28
2.787459e-28 -2.219814e-28 -4.8942834e-28 1.0481239e-28 0.10935007 0.10083189 0.041227516 0.035935167

net.0.bias f4 [50]
00000000: 1778 83be a267 aa3e eee5 0080 6354 713d
00000010: a709 813e b336 96be 7b3e 0080 84bd af3e
00000020: dc52 9dbe 4501 dbbe eb6f 80be 8ab0 318d
00000030: bb05 833e 8832 e83e bf44 ea3e bec3 30bd
00000040: bd85 7f3e 45a2 24b7 59af be3e 3bac 643d
00000050: 038c 0100 9aa5 82be 84e7 9f3e 0f19 0000
00000060: a132 0180 1106 0180 5ddd 6bbc 7996 0f3b
00000070: 2cd8 2204 1433 aabe 7863 0080 9788 0280
00000080: 44e4 82be 497d 0000 c1ea 0080 4c9c a312
00000090: e1fe e0be 3bf5 0cbe 53be 2c21 363b 163e
000000a0: 12c2 8cbe 9e8f a913 756b c13e d625 2f3e
000000b0: ccb4 b823 88c4 0080 e923 1b3e 1ada 8bbe
000000c0: a38c 0080 1c83 0000
-0.2567756 0.3328219 -8.2483e-41 0.058918368 0.25202677 -0.29338607 -2.2414e-41 0.34324276
-0.3072728 -0.42774406 -0.25085387 -5.4754837e-31 0.2559031 0.45351052 0.45755574 -0.043155424
0.24953361 -9.812943e-06 0.37243155 0.055828314 1.42062e-40 -0.2551697 0.3123132 8.99e-42
-1.09998e-40 -9.4012e-41 -0.014396039 0.0021909757 1.914227e-36 -0.33242095 -3.5683e-41 -2.3267e-40
-0.25564778 4.4944e-41 -8.4214e-41 1.0325276e-27 -0.43944457 -0.13765423 5.852776e-19 0.14671025
-0.27491814 4.2803215e-27 0.37777296 0.17104277 2.002589e-17 -7.0502e-41 0.15150417 -0.27314836
-5.0451e-41 4.7033e-41

net.2.weight f4 [50, 50]
00000000: c342 0b3e bc3d 4c3e 1ae4 4280 b05f d03d
00000010: 1651 603e 6568 223e 79ca 0000 7d7a 023e
00000020: b3a1 153e 7a82 643e 7588 e73d da16 278b
00000030: 16f0 403e de53 183e ab3b 543e b025 de3d
00000040: b5ad 123e af58 318d 8d8d 593e 0c89 cd3d
00000050: e5be 1000 e96d 133e 008c 743e 3e2b 0080
00000060: cf4d 0080 e8ed 0000 8b71 a43d a0e0 f73d
00000070: e6bd 9a03 ee44 083e 717c 0180 055a 0980
00000080: 31f6 253e ee51 0c00 66a2 0080 3454 b411
00000090: 7e10 3c3e 7d4b 0f3e 5112 bb07 467c d63d
000000a0: a4c4 0f3e 2e3e 2c14 94cd 193e bdda 1a3e
000000b0: a49b 5681 279e 0080 a5f1 d43d 8911 173e
000000c0: db5c 0000 ed40 0000 e94d f93d 1398 363e
000000d0: 55c5 0080 7a14 ba3d ded8 483e 122e 113e
000000e0: 191d 0080 49fd e83d f9c5 053e 55e1 4b3e
000000f0: b21a cf3d 7600 9e81 d496 2c3e 3617 083e
00000100: afe7 3d3e 47b5 c63d b146 033e ab16 260a
00000110: e38e 423e 20a8 b73d 83dd 0000 5ac6 033e
00000120: 22f9 5a3e f717 0180 9838 0080 d604 0000
00000130: 91fe 923d 0451 dd3d 87fb 8903 76c9 f33d
00000140: 9d2c 0000 fbf7 0100 6c55 143e 1dfb 0000
00000150: 750a 0000 03da 9511 b3f2 273e 6948 003e
00000160: cb9b de0a 588d bf3d cb89 003e fc60 2014
00000170: 847b 093e 6796 0a3e aa1f 0f00 283d 0000
00000180: 4040 be3d 041f 073e 82ab 0000 8967 0100
00000190: 7b85 e83d d72d 2a3e 1429 0080 0a55 ad3d
000001a0: b459 3b3e 5e4e 073e 0077 0080 26fe d83d
000001b0: 275e f93d 14ce 3d3e eb18 c13d b5e0 bb07
000001c0: 7ee7 203e 4a95 fd3d 1e16 313e 4545 b93d
000001d0: 1bdd f43d 1747 7588 f95c 353e e61e ab3d
000001e0: c768 0000 6e9e f53d 4243 4c3e 5f9a 0180
000001f0: b443 0080 7c14 0080 cffc 883d 8f20 ce3d
00000200: 856a 8003 a34a e33d 9e55 0180 291b 0000
00000210: 683c 0a3e e3f8 0000 21aa 0000 f932 8c11
00000220: 3871 1c3e 0c4f ef3d 98c9 1e88 e16b b23d
00000230: 509a ef3d dea4 1414 2f20 003e b03e 013e
00000240: a911 1500 a731 0080 413e b13d 73f1 fb3d
00000250: b3ab 0080 34ab 0080 b9db ed3d 1f21 2e3e
00000260: 0b00 0080 a261 b13d b4a5 3f3e 8571 0a3e
00000270: f47b 0000 4d13 de3d ec24 ff3d f145 423e
00000280: c88b c53d 4bba 1880 9d9e 243e 4fbf 013e
00000290: f629 353e 4689 bd3d 677c fa3d b2ea 8706
000002a0: 048f 393e db1a af3d 0001 0100 6b4f fb3d
000002b0: c2f1 503e 4361 0080 a6b6 0800 cbc6 0080
000002c0: f42a 8c3d fcf2 d23d beae 8203 5d88 e83d
000002d0: 2c6d 0000 61b3 0d00 a371 0d3e 078f 0100
000002e0: 0f5e 0080 3467 9a11 7f18 203e ffcb f43d
000002f0: 6129 fc07 fe97 b63d d528 f53d 320d 1814
00000300: f819 033e 5b37 043e 61e6 1700 9c80 0000
00000310: a661 b53d 25e1 003e b819 0080 8492 0180
00000320: 8f3e 962a 04a8 d72a a35c 0000 4de7 5e2a
00000330: f057 f32a b4c4 ac2a 7a98 0000 06e2 892a
00000340: d440 a02a 9ef5 eb2a 0294 782a ecfe 0580
00000350: 44ec cf2a 94cf a12a 67a2 e72a 54e4 6b2a
00000360: 0d7b 9c2a bbf9 0800 4e08 e92a 16f3 562a
00000370: b24f 0100 29d9 9e2a d061 042b 3744 0180
00000380: 86b0 0080 cbad 0000 4e86 2e2a 78f8 802a
00000390: 7349 0300 e659 912a 6a87 0000 109b 0080
000003a0: 0b66 b22a 5d41 0000 3fd2 0080 6f1c 1700
000003b0: d9ae c82a 499a 982a 4783 2e80 f526 602a
000003c0: ea17 992a b029 b100 e4f7 a62a bdfc a62a
000003d0: e829 0c00 4ea5 0080 d1b5 5f2a 3dc3 a12a
000003e0: 9725 0000 c849 0080 6159 293d 012f 763d
000003f0: 8f36 0000 926d fa3c 3c90 883d 2ae0 433d
0.13599686 0.19945425 -6.14297e-39 0.10174501 0.21905932 0.15860136 7.2634e-41 0.12742038
0.14612465 0.22315398 0.11305324 -3.2180222e-32 0.18841586 0.14875743 0.20725887 0.10847032
0.14324076 -5.4649085e-31 0.21245404 0.10035905 1.537848e-39 0.14397396 0.23881531 -1.5512e-41
-2.7912e-41 8.5345e-41 0.08029469 0.12103391 9.094905e-37 0.13307545 -1.36477e-40 -8.58812e-40
0.16207196 1.131417e-39 -5.8258e-41 2.8450887e-28 0.18365666 0.1399364 2.8147398e-34 0.10472922
0.14039856 8.696044e-27 0.15019828 0.15122505 -3.941726e-38 -5.6734e-41 0.103976525 0.14752783
3.331e-41 2.3291e-41 0.12173063 0.17831449 -7.079e-41 0.09085937 0.19613978 0.1417773
-1.0438e-41 0.11376435 0.13063802 0.19910176 0.101125136 -5.8040695e-38 0.16854411 0.13290104
0.18545412 0.09702545 0.12819935 7.996873e-33 0.1899982 0.08967614 7.9463e-41 0.12868634
0.21384099 -1.00432e-40 -2.0302e-41 1.735e-42 0.07177461 0.10806468 8.109884e-37 0.1190366
1.6004e-41 1.80794e-40 0.14485711 9.0082e-41 3.751e-42 2.3642415e-28 0.16401176 0.12527622
2.1436425e-32 0.09353131 0.12552564 8.0970625e-27 0.13426024 0.13533936 1.388891e-39 2.1939e-41
0.092895985 0.13195425 6.1525e-41 1.28977e-40 0.113535844 0.16619049 -1.4736e-41 0.084634855
0.18295938 0.13213488 -4.2689e-41 0.1059535 0.12176161 0.18535644 0.09428581 2.8268704e-34
0.15713307 0.1238199 0.17293593 0.09046415 0.11956235 -7.381057e-34 0.17711248 0.08355503
3.7587e-41 0.11993109 0.19947532 -1.47213e-40 -2.4287e-41 -7.348e-42 0.066888444 0.10064804
7.5476195e-37 0.1109822 -1.22549e-40 9.743e-42 0.13499606 8.9284e-41 6.1031e-41 2.211952e-28
0.15277565 0.11684999 -4.778337e-34 0.087119825 0.11699355 7.504605e-27 0.12512277 0.1262157
1.93488e-39 -1.7812e-41 0.08654452 0.12301912 -6.1594e-41 -6.1416e-41 0.116141744 0.17004822
-1.5e-44 0.086612 0.18715554 0.13519867 4.4466e-41 0.10843525 0.12458214 0.18971993
0.09645802 -2.270881e-39 0.16076131 0.12670635 0.17691788 0.092546985 0.12230759 5.112621e-35
0.18120962 0.08550044 9.2194e-41 0.12271007 0.20404723 -3.4891e-41 8.00206e-40 -7.1313e-41
0.0684413 0.10300252 7.680832e-37 0.11354134 3.9163e-41 1.25821e-39 0.1381288 1.43144e-40
-3.3742e-41 2.436052e-28 0.15634345 0.11952972 3.7941066e-34 0.08915709 0.11970679 7.676641e-27
0.12802875 0.12911741 2.194861e-39 4.6136e-41 0.088565156 0.12585886 -9.226e-42 -1.44395e-40
2.668876e-13 3.8308256e-13 3.3232e-41 1.979781e-13 4.322649e-13 3.0689828e-13 5.4698e-41 2.4492924e-13
2.8466693e-13 4.1914817e-13 2.2078175e-13 -5.50626e-40 3.693453e-13 2.8743381e-13 4.1146532e-13 2.095141e-13
2.779655e-13 8.2427e-40 4.1394877e-13 1.9091356e-13 1.20425e-40 2.8217123e-13 4.703156e-13 -1.16306e-40
-6.3325e-41 6.2345e-41 1.5500901e-13 2.2909777e-13 3.01855e-40 2.5819554e-13 4.8577e-41 -5.5626e-41
3.1689958e-13 2.3448e-41 -7.5422e-41 2.122416e-39 3.5648462e-13 2.710768e-13 -4.271526e-39 1.9908713e-13
2.7194853e-13 1.6269837e-38 2.9659532e-13 2.9662896e-13 1.117059e-39 -5.93e-41 1.9869459e-13 2.873482e-13
1.3485e-41 -2.6468e-41 0.041345004 0.06010342 1.9572e-41 0.030569825 0.066681355 0.0478212

net.2.bias f4 [50]
00000000: 6398 0432 fd69 0732 8942 d6b1 bf08 9530
00000010: 7b35 1d9d a548 10b1 6f03 b139 7841 f830
00000020: 6cb0 db31 5264 961f 538c 4980 88fe beb1
00000030: 82eb 1aa5 d885 cb3a 5545 81b0 f18c 0080
00000040: d079 a7b1 6762 13af c70a 7232 9783 7f3b
00000050: 25e2 da34 6e24 2f83 c8a5 392f 9cc6 c9b1
00000060: 46f8 ceb0 12cc a130 b6b3 0080 dece f395
00000070: 9ebe 52b2 7b31 0000 a429 2330 6403 40ac
00000080: f348 aab2 ad00 21b1 a956 f8b1 6b2b 380c
00000090: 3536 0000 dd2a 0a80 d893 0100 d4d9 5932
000000a0: f95d 0f00 6886 ff30 7468 a532 62ff 7132
000000b0: e970 833b cf99 f731 49e4 2cb2 3025 9632
000000c0: b5c9 d2b0 03d7 8a3a
7.71806e-09 7.882133e-09 -6.235784e-09 1.0843663e-09 -2.0806426e-21 -2.0996052e-09 0.0003376263 1.8062982e-09
6.3937957e-09 6.369344e-20 -6.75433e-39 -5.5586646e-09 -1.3437164e-16 0.001552756 -9.405691e-10 -5.056e-41
-4.874188e-09 -1.3404532e-10 1.4088704e-08 0.0038988346 4.0770206e-07 -5.1469697e-37 1.688455e-10 -5.872449e-09
-1.5059036e-09 1.1772292e-09 -6.4468e-41 -9.84733e-26 -1.226695e-08 1.775e-41 5.935823e-10 -2.7286723e-12
-1.9823778e-08 -2.3428968e-09 -7.227602e-09 1.418791e-31 1.9446e-41 -9.33731e-40 1.44872e-40 1.2680591e-08
1.411243e-39 1.8591892e-09 1.9256028e-08 1.4086114e-08 0.0040112627 7.206132e-09 -1.0063624e-08 1.747921e-08
-1.533684e-09 0.0010592643

net.4.weight f4 [1, 50]
00000000: 5f5a 5bbf 9321 44bf 4ed0 36bf 1d0c 3bbf
00000010: f16d e8ab fe63 84be 1614 213a 21ce 2dbf
00000020: 327a 53bf 18d3 0e20 716c 868d dc3c 63bf
00000030: ecf0 75b2 7e4e 373b 8f5d 74bf a916 0980
00000040: 30d0 4ebf 8b05 1fbf 13c9 46bf ddd5 e53b
00000050: 4e37 4c35 b562 9891 70a0 7bbd 8668 58bf
00000060: 1c35 59bf 9ad2 26bf 06e1 0b80 02d9 44a3
00000070: 05d5 50bf 7ade 0080 3b77 6dbf ebc3 23ba
00000080: 7412 51bf 8145 38bf 14ca 55bf 8c61 9390
00000090: a212 1080 e7bb 0c87 820b 5f80 8e64 5ebf
000000a0: ab1a 0000 d2a4 63bf 3dd8 1a33 4052 51bf
000000b0: cac3 ed3b 298b 6bbf d840 64bf 85b0 55bf
000000c0: 2444 45bf 48d1 fb3a
-0.8568477 -0.7661373 -0.714116 -0.7306536 -1.6515106e-12 -0.25857538 0.00061446556 -0.6789265
-0.8260833 1.2097713e-19 -8.284494e-31 -0.8876474 -1.4315656e-08 0.002797037 -0.9545526 -8.34648e-40
-0.8078642 -0.6211783 -0.77650565 0.00701402 7.60764e-07 -2.4042204e-28 -0.061432302 -0.8453449
-0.84846663 -0.651651 -1.090914e-39 -1.06711345e-17 -0.8157504 -7.981e-41 -0.92760056 -0.00062471506
-0.8166878 -0.71981055 -0.8351147 -5.813157e-29 -1.476052e-39 -1.0587649e-34 -8.7285e-39 -0.86872184
9.567e-42 -0.8892337 3.6052587e-08 -0.8176613 0.007256006 -0.92009217 -0.89161444 -0.8347247
-0.770571 0.0019212151
