code/pretrained_models/reward_models/levy10.pt (torch, 14927 bytes, 5 tensors)

net.0.weight f4 [50, 11]
00000000: aaa5 3fbd 69e5 bfbc ee21 b4be db28 40be
00000010: 5a6e 18be 0c76 f7bb 4a9d 753e 8ec9 c13e
00000020: 49a1 d53d 1cdf ae3d d9ef 54bb b76e a53c
00000030: 1f0c b43d 1536 593d 3105 c23d 9923 1bbc
00000040: 866a 55bc 08e3 203d e645 02ba 724e d7bd
00000050: f35f 00be fc24 d13c b6c5 58be ec9d a9bd
00000060: 15ec ef3d b05a 7c3e 2821 8d3d cba0 c0bd
00000070: e6ad b13e bde9 803e 6647 793d 5bb2 493e
00000080: 8d2e be3a ced0 6b3d e855 873d c46d d93d
00000090: 81ad f33d 0515 b9bc 36d2 1fbc 549f 37be
000000a0: ab76 49bb c071 acbc 1c31 ccbc f5f7 e53d
000000b0: 0cf4 67ba 7e0b 5bba 2104 0dbb 13da 68ba
000000c0: efd3 d739 4915 af3a 3947 0eb9 978e d43b
000000d0: 1e9d 0a3b 2f2a b83a e01e 73bc 6ef4 96be
000000e0: 4af5 e7bd d9b0 1d3e 611d 103e 8c4a 20bd
000000f0: 5555 143e 4fa1 3b3e 018e d8bc 1ae2 9c3d
00000100: dba2 babe fbec cab8 5942 0000 f762 0080
00000110: b6be 0180 f710 0080 65e1 0000 94bf 0000
00000120: e133 0080 e55d 0000 d828 0180 fe1b 0100
00000130: e3c2 0180 f852 0d3c 2f18 a13c f9ad fbbd
00000140: 90b8 1fbe f340 723d 5d87 57bd 2c2b d43d
00000150: fb54 873b f234 963d b59f d5bb dd22 b33d
00000160: fb36 723c 9b10 0cbe 3743 0abc 3f21 303e
00000170: dc52 ebbd 6be2 223d 2951 543d ac62 92bd
00000180: 3fec 88bd 12a0 4fbd 19e9 1e3e 0b46 3abb
00000190: 5b2b f43b 7e24 51ba 60b8 8a3b a85e 633b
000001a0: 485f dfba 2246 8dbb 45c1 a6bb 7cf8 063b
000001b0: 6832 62ba 6c6d 40bc 1737 0800 cddb 2f80
000001c0: fb14 0100 41f8 c106 b379 0400 0c0a 0a00
000001d0: e300 0900 5827 0b80 e06d 1800 c70f 0580
000001e0: 518f 148d d694 a5bd 4587 14be dff2 183d
000001f0: 776c c6bd 4f6b 8d3e da5a 0ebd c167 6cbd
00000200: 72c9 15be 1c9d 99be e906 2d3e 36f9 133b
00000210: 9b49 053e 0272 8f3c 7ce8 b13e 71c0 5cbe
00000220: 1fe6 6bbe 6a80 a0bd f700 8abb c05b aebe
00000230: fa43 c53d 9f16 3c3e b0d3 3bba b3b4 9f3d
00000240: 8048 ec3d 99f2 be3d 2929 1abe 237f 94be
00000250: 484c 4e3d ca22 3f3d 8a82 82bc 842e 9cbe
00000260: 62c3 8c3d 8577 5fbb 38be 87be 59fc 5b3e
00000270: b1dd c8bb cd3c 22be f096 e63c d761 d23d
00000280: 3a03 81be 5459 d63c ec26 fe3d 0144 72be
00000290: 8d6a 86bb fbdf 8b3c 0708 0cbe b204 4bbe
000002a0: eb8c 9e3d 3b29 e1be 3acd 183e c147 75be
000002b0: 522c e63d 684b 3bbe d6dd 8dbd a120 b4bb
000002c0: ba06 6e25 42a2 c6a5 fb84 dea9 c4c6 2daa
000002d0: 04db e026 21a2 e7a9 0959 5125 e9e3 8d27
000002e0: 1da3 5a2a 3e07 d129 ab52 27b9 6a59 b7bc
000002f0: 218e 68bd da7e 66bd d2e0 a73b 84d6 e43c
00000300: d287 00bb 3988 7e3d 8e69 0c3d aba0 1ebd
00000310: 73e1 df3c 9077 9c3d d304 0080 eb0c 0080
00000320: 8931 0000 4244 0080 11c9 0080 9aee 0000
00000330: 8c4a 0000 4a78 0000 8f81 0080 d75e 0000
00000340: 18e2 3ca0 3a39 463a 8641 a6bb 1591 cb3a
00000350: afda 41bb a934 b1ba 5085 1f3b 355e 293b
00000360: d14f a53b e19c ec39 3bec 0b3b 2a0b 18bc
00000370: 634e 6388 9cc7 0b00 245a 5e04 7fb8 6b90
00000380: d49b 2081 605a f015 3664 0c80 d10f 3a80
00000390: bdf3 3509 0f7b b907 cbc4 7199 c1cf 80bc
000003a0: 5392 e7bd 581d 273c 0166 c13d e3c7 bdbd
000003b0: fa42 f9bc 638b 67bd 4c69 dcbc ea03 c439
000003c0: 786e 8d3d 635a 313e 9c71 f9af f1f3 112e
000003d0: d9ac 51aa d1e0 cc2f 6b02 94ae 606a 0733
000003e0: 7e1a 44ae e46e b132 3943 9e33 a9bc f7b2
000003f0: f907 9db6 a639 0380 73f2 3200 9164 0000
-0.04678885 -0.023424821 -0.35182136 -0.18765585 -0.14885846 -0.007551914 0.23985782 0.37849087
0.10431153 0.085386485 -0.0032491593 0.020194395 0.087913744 0.053030092 0.094736464 -0.009468936
-0.013025885 0.039279014 -0.0004969522 -0.10513009 -0.12536602 0.02553033 -0.2116917 -0.08282074
0.11714951 0.2464397 0.0689109 -0.09405669 0.34702986 0.25178328 0.060859106 0.19696943
0.0014509723 0.05757218 0.06608182 0.10616639 0.118983276 -0.02259303 -0.009754708 -0.17931873
-0.0030740898 -0.021050334 -0.02492576 0.11228935 -0.00088483165 -0.00083558995 -0.0021517354 -0.0008882593
0.00041165898 0.0013357784 -0.00013568708 0.0064867246 0.0021150778 0.0014050658 -0.014838904 -0.2948336
-0.11326082 0.15399493 0.14073707 -0.039133593 0.14485677 0.18323253 -0.0264349 0.07660313
-0.36452374 -9.676252e-05 2.3801e-41 -3.5502e-41 -1.6025e-40 -6.086e-42 8.0856e-41 6.8725e-41
-1.861e-41 3.3683e-41 -1.06487e-40 1.01877e-40 -1.61748e-40 0.008625738 0.019664852 -0.12289042
-0.15597749 0.05914397 -0.052619327 0.10359797 0.0041300035 0.07334317 -0.0065192827 0.08746884
0.014783616 -0.1367821 -0.008438877 0.17200182 -0.114904135 0.03976671 0.051835213 -0.071477264
-0.06685685 -0.050689764 0.15518607 -0.0028423097 0.0074514574 -0.0007978155 0.004233405 0.003469387
-0.0017041946 -0.004311339 -0.0050889575 0.0020594886 -0.0008628727 -0.011744838 7.54446e-40 -4.395118e-39
9.9362e-41 7.296331e-35 4.11e-40 9.21959e-40 8.26838e-40 -1.024304e-39 2.243468e-39 -4.64837e-40
-4.577853e-31 -0.08085029 -0.14504726 0.037340995 -0.09688657 0.27620932 -0.03475461 -0.057716135
-0.14627627 -0.30002677 0.16897167 0.0022578961 0.1301636 0.017510418 0.34747684 -0.21557786
-0.23037003 -0.07836993 -0.004211541 -0.34054375 0.09632106 0.18368004 -0.0007165028 0.077981375
0.11537266 0.093236156 -0.15054764 -0.29003248 0.050365716 0.046664037 -0.015931387 -0.3050424
0.06873204 -0.0034098339 -0.26512313 0.21482982 -0.0061299433 -0.15843506 0.028148144 0.10272568
-0.25197774 0.026165642 0.124097675 -0.23658754 -0.0041020573 0.017074576 -0.13674937 -0.1982601
0.07741722 -0.4397677 0.14922038 -0.23953153 0.11238922 -0.18290484 -0.069270775 -0.0054970537
2.0645488e-16 -3.4457475e-16 -9.881849e-14 -1.5434447e-13 1.5602487e-15 -1.02865856e-13 1.8158027e-16 3.9382462e-15
1.9418881e-13 9.282721e-14 -0.00015957157 -0.022381503 -0.05677617 -0.05627332 0.005123236 0.02793432
-0.0019612205 0.06214163 0.034280352 -0.038727444 0.027329182 0.07639992 -1.73e-42 -4.634e-42
1.777e-41 -2.4486e-41 -7.2129e-41 8.5594e-41 2.6742e-41 4.3152e-41 -4.6477e-41 3.4022e-41
-1.5999028e-19 0.0007561628 -0.005073729 0.0015530909 -0.0029579808 -0.0013519722 0.0024340935 0.0025843505
0.0050449152 0.00045130312 0.002135052 -0.0092800055 -6.840247e-34 1.081797e-39 2.6137365e-36 -4.648771e-29
-2.949916e-38 9.7077815e-26 -1.137975e-39 -5.332133e-39 2.1901688e-33 2.7908034e-34 -1.249915e-23 -0.015724065
-0.11307206 0.010199867 0.09443284 -0.09266641 -0.030427445 -0.056529414 -0.026905678 0.0003738695
0.06905836 0.17319636 -4.537356e-10 3.3185846e-11 -1.8622898e-13 3.7267125e-10 -6.73069e-11 3.1528884e-08
-4.458877e-11 2.065594e-08 7.369676e-08 -2.8840377e-08 -4.6798928e-06 -2.96187e-40 4.678749e-39 3.6076e-41

net.0.bias f4 [50]
00000000: d6b4 f1bb 558d c5bb c8e1 50bc 2b08 363b
00000010: ed99 ec8c 93f3 edbc 5cc4 0080 d299 41b9
00000020: c50b ddba 6dc3 801b c406 9e00 8b6c 293d
00000030: c76d 383d fe5e 20bc d262 38bd d32e b7bd
00000040: 903e 0000 bc04 12bb 2719 0000 1afc 239c
00000050: 8516 5780 b785 f5ba 0373 0000 d02a 0080
00000060: 7aeb 3f3c 4def adbc 9eae f025 1695 10bb
00000070: be80 343b 9027 dc3c 61da 99ab 9bc8 a13c
00000080: 237e 8609 38e6 ff3a b8d9 b3bc 80a2 bd26
00000090: 0c1b 9dbc 35f7 13bd 42dd 8ebd 4fdb df3b
000000a0: 5135 0000 bb8e 9f3c 09d4 ce3b b65e 763c
000000b0: 352b 79bb 7545 753a 5291 0180 715a d83b
000000c0: a907 8a3a 4c60 923d
-0.0073762937 -0.006028811 -0.012749143 0.0027775865 -3.6454198e-31 -0.02904681 -7.044e-41 -0.00018463217
-0.001686447 2.1302115e-22 1.4512435e-38 0.04136328 0.045026567 -0.009788273 -0.045016117 -0.08944478
2.2443e-41 -0.0022280654 9.023e-42 -5.425801e-22 -7.997767e-39 -0.0018731867 4.1258e-41 -1.5358e-41
0.011713857 -0.021232272 4.1751689e-16 -0.0022061518 0.0027542557 0.026874334 -1.0931916e-12 0.019748976
3.2377945e-33 0.0019523567 -0.021954402 1.3158555e-15 -0.019177936 -0.036124427 -0.06975795 0.0068315635
1.9126e-41 0.019477239 0.0063118977 0.015037229 -0.0038020138 0.0009356358 -1.43967e-40 0.0066025783
0.0010530847 0.071472734

net.2.weight f4 [50, 50]
00000000: 4f64 023e 95a7 e73a 39c8 f63d 0984 2a3d
00000010: 8141 e52f 87e0 003e d2dc 0180 b2a2 013d
00000020: 0c67 c23c 30e4 f737 3d59 0380 b190 db3d
00000030: b005 e53d cf03 e03d 0b37 033e dfa9 fd3d
00000040: 8799 4a11 8deb 7ebc 110e 0000 69e3 1db7
00000050: 5db6 2680 875c 233c 53dd 0200 4d43 0080
00000060: 51c3 ef3d 24f2 9f3d d61f 2439 ae4d 8c3d
00000070: 681d a73c 99a6 083e 7fdb c9b4 2c8c 0f3e
00000080: 2abb 0600 fb78 d9bb 5860 0a3e e9ab 7c32
00000090: a95f e23d cfdb db3d c9c1 1e3e 357e 653d
000000a0: 5da5 0080 6163 b63d 98b5 9d3b a5b2 d83c
000000b0: ad5c d0bc 1492 853d 3d0d 0480 bd49 863d
000000c0: 7a60 62bb 1062 1d3e e3c5 8dbd b55b ba3d
000000d0: e342 d73d 1da9 34bd f761 6db7 f1fe be3d
000000e0: 2a1b 0080 9984 d7bd f303 6ebc 0f83 8638
000000f0: 4579 0700 9963 503e 46a4 1bbb 87ac ca3d
00000100: 36b1 d13d e6ca ce3d d387 74a3 63ce b2bc
00000110: 9f42 0000 f54e 0cb5 c4fd 0c80 b05a e1bc
00000120: ee90 0100 b119 0000 c7c3 b03d 934b f23a
00000130: 1a68 7fb9 a263 0f3c 4e99 553d 709d 003e
00000140: bf60 9a2f cb26 e3bc 2671 0280 d3d2 3bbd
00000150: 2206 9b3d e747 8834 2b94 f43d 13c5 b7bc
00000160: f985 983d 48ad 0dbc 6e15 0080 cfe9 0f3c
00000170: 0351 fdbd 2ed4 cb3c c0bc f13d 46b9 cebd
00000180: 8d6d d19f 1ad5 2fbc a527 163e 8a03 543d
00000190: 0c38 0100 d62b 0100 575f 0100 b84a 0100
000001a0: cab1 0000 c694 0480 f4ba 0080 1b2f 0580
000001b0: 7ca5 0380 7f04 1a00 b727 0080 6f20 0300
000001c0: ccda 0080 656b 0100 3906 0380 8215 0400
000001d0: 012b 0000 20b2 0000 e0c3 0080 3657 0f00
000001e0: 7a0b 0000 4a63 0880 6f2d 0000 5670 0000
000001f0: ccaa 0600 d584 0380 db61 0000 87d9 0200
00000200: 4ab0 0880 f664 0080 9379 0100 e2ea 0000
00000210: 516e 0000 dd1b 0480 0e50 0300 559e 0100
00000220: 2f03 0000 fc1a 0800 5f15 0200 de56 0280
00000230: 59d3 0080 2ddd 0880 8fd8 0300 46bf 0580
00000240: a935 0580 120c 0a80 210b 0180 aaaa 0100
00000250: 4b25 0480 2fb7 0080 a737 783d cbb2 41ba
00000260: 2f1e 7a3d 0015 933c 2e56 afa7 33ed 8e3d
00000270: 778c 0880 f0b5 ef3a 4079 c03b 7c0a 9633
00000280: 7a15 0a80 fd6e 603d 6c33 213d 0a0b 643d
00000290: 604f 873d ffe1 993d 1c68 0100 4fdc 80ba
000002a0: 8371 0080 03fa 6bb2 6177 0600 fef9 083c
000002b0: 921c 0080 1b88 0080 2504 843d 8d9e 043d
000002c0: 7842 6636 8154 2c3d c59a 8f3b 6a6f 833d
000002d0: ad57 08ad eb21 9d3d 8058 2100 9f1c d73a
000002e0: a05e 893d 5650 6b29 6b2a 623d 1e53 7d3d
000002f0: 9e45 a83d 81aa 2dbb 6bc9 0080 afd7 873d
00000300: c64b 743b f7ab 253d 2265 4f3c d3c9 ac3c
00000310: a5e0 0080 5d25 de3b 0ffb 903c 0819 a03d
00000320: de38 d61f d2a0 009c 402d cd1f 79df 981d
00000330: cf96 0500 7342 cb1f c383 0100 8345 119e
00000340: cf22 041f 4fe5 3f80 7d7d 0500 0287 cb1f
00000350: 3a82 1420 d6b5 df1f 341c 0820 8ac8 1420
00000360: f055 0000 b829 121e 27aa 0000 b707 0180
00000370: 39b7 0380 a9a9 811d efa1 0180 92d8 8c00
00000380: b671 f91f 97e3 c61f 43b6 1100 2662 c21f
00000390: 5b7e 071e be06 0420 a1df 0180 641a c81f
000003a0: 7b25 0380 3e81 309e 6cb7 e51f b610 0080
000003b0: 09be 879f b42c d61f 1d5e f21f 673a cf9e
000003c0: 395f 0080 38c7 f51f 041d a51d b6d0 4821
000003d0: 88e2 7f1f bbaf 5621 6da6 2480 c53a c21e
000003e0: 4eab 5b1f 18fb dc1f 21df 09b7 9cd7 97b4
000003f0: d7e6 3eb6 edbb e3b6 4cb6 0180 1d57 72b6
0.12733577 0.0017673845 0.12049908 0.041629825 4.17014e-10 0.1258565 -1.71051e-40 0.0316493
0.023730777 2.9550953e-05 -3.07519e-40 0.10720957 0.111827254 0.109382264 0.12813966 0.12385916
1.59823e-28 -0.015559089 5.046e-42 -9.410877e-06 -3.555168e-39 0.009970791 2.63067e-40 -2.4143e-41
0.117071755 0.078098565 0.00015652119 0.06850754 0.020399764 0.13344802 -3.7598872e-07 0.14018315
6.18155e-40 -0.0066367364 0.13513315 1.4707418e-08 0.11053402 0.107352845 0.1550361 0.056028564
-5.9321e-41 0.08905674 0.0048129074 0.026452372 -0.025434816 0.06522003 -3.72091e-40 0.06557033
-0.0034542368 0.15369439 -0.069225095 0.09099523 0.105108045 -0.04410659 -1.414911e-05 0.0932597
-9.745e-42 -0.10523338 -0.014527309 6.4140295e-05 6.86352e-40 0.20350493 -0.0023749038 0.09896188
0.102388784 0.100972936 -1.3256028e-17 -0.021826928 2.3899e-41 -5.226896e-07 -1.19306e-39 -0.027509063
1.43826e-40 9.216e-42 0.086310916 0.0018485658 -0.00024357476 0.008751782 0.052148156 0.12560058
2.808118e-10 -0.027728459 -2.24261e-40 -0.045855355 0.07569529 2.538429e-07 0.11942323 -0.02243284
0.07447428 -0.0086472705 -7.688e-42 0.008783772 -0.123689674 0.024881449 0.11803579 -0.10093932
-8.869618e-20 -0.01073196 0.1466356 0.051761188 1.11941e-40 1.07561e-40 1.26037e-40 1.1864e-40
6.3779e-41 -4.20712e-40 -6.7066e-41 -4.76076e-40 -3.34871e-40 2.389336e-39 -1.4247e-41 2.87141e-40
-7.849e-41 1.30361e-40 -2.77739e-40 3.75058e-40 1.5427e-41 6.3899e-41 -7.0267e-41 1.408818e-39
4.117e-42 -7.70302e-40 1.6299e-41 4.0299e-41 6.12283e-40 -3.23158e-40 3.5104e-41 2.61705e-40
-7.97925e-40 -3.6218e-41 1.35448e-40 8.426e-41 3.9574e-41 -3.77337e-40 3.04225e-40 1.48634e-40
1.142e-42 7.44364e-40 1.91337e-40 -2.14833e-40 -7.5817e-41 -8.14027e-40 3.53193e-40 -5.27793e-40
-4.78427e-40 -9.22685e-40 -9.5828e-41 1.53058e-40 -3.8072e-40 -6.5714e-41 0.06059995 -0.0007389008
0.06106394 0.01795435 -4.8665694e-15 0.06978836 -7.85073e-40 0.0018288475 0.005873829 6.9868264e-08
-9.2606e-40 0.054793347 0.03935568 0.05567459 0.066069365 0.075138085 1.29183e-40 -0.0009831282
-4.072e-41 -1.3735646e-08 5.93838e-40 0.008360384 -1.0249e-41 -4.8825e-41 0.06446103 0.03237777
3.431136e-06 0.042072777 0.0043824636 0.06417735 -7.750173e-12 0.07672485 3.062319e-39 0.0016411728
0.067075014 5.2250162e-14 0.055216234 0.061846845 0.082164034 -0.0026499333 -7.2255e-41 0.06632935
0.003727661 0.0404472 0.012658389 0.021092331 -8.0587e-41 0.0067793564 0.017697839 0.07817274
9.0726604e-20 -4.2559503e-22 8.689574e-20 4.046513e-21 5.13277e-40 8.6083775e-20 1.39103e-40 -7.690611e-21
2.798088e-20 -5.867897e-39 5.04194e-40 8.6197196e-20 1.2579176e-19 9.4744996e-20 1.152898e-19 1.260244e-19
3.0829e-41 7.737803e-21 6.1039e-41 -9.4603e-41 -3.41234e-40 3.432144e-21 -1.49926e-40 1.293466e-38
1.0564372e-19 8.423278e-20 1.626587e-39 8.232457e-20 7.17297e-21 1.1183066e-19 -1.72058e-40 8.4746954e-20
-2.88952e-40 -9.344089e-21 9.728872e-20 -5.995e-42 -5.748911e-20 9.070648e-20 1.02646684e-19 -2.1941132e-20
-3.416e-41 1.04091116e-19 4.3705138e-21 6.803886e-19 5.4185733e-20 7.27386e-19 -3.36578e-39 2.0564855e-20
4.6516754e-20 9.3589024e-20 -8.217788e-06 -2.8282818e-07 -2.8446573e-06 -6.7870046e-06 -1.57231e-40 -3.6111517e-06

net.2.bias f4 [50]
00000000: b339 bdb2 c673 ce3a 9bcc 0080 d12a 33b2
00000010: 3939 3c94 bbbe d70a 9e98 0200 b80b 0100
00000020: 1d72 84b2 8c79 b73b 4d59 879c 444a b5a9
00000030: d2fa 02bc 7e18 0100 2db9 86ae 0c58 083b
00000040: 0e9c 0080 76e3 e63b f339 69b2 ffbe 073c
00000050: 2a31 0580 07b3 fb3a abba 0500 44bf a73b
00000060: 7412 7f3c ddfa f53b f5e0 6d3b ac1d e9bb
00000070: e768 0480 8211 4c39 3406 fcb1 35aa 0500
00000080: 1841 c53a 2e15 a4a1 f010 0180 ebb5 1c3b
00000090: 206a 093b 2242 d0b2 467b 83b2 e181 e7b2
000000a0: 99d1 0080 b4b6 8b3b 05d4 773b e458 0000
000000b0: e0cb abb2 e7c4 6bb2 2df9 96b9 753c b0bc
000000c0: 097c 9fbc 8d50 a73b
-2.2028734e-08 0.0015751056 -7.3399e-41 -1.0428907e-08 -9.5028596e-27 2.0775492e-32 2.3842e-40 9.604e-41
-1.5418715e-08 0.0055992063 -8.956634e-22 -8.050898e-14 -0.007994371 1.00622e-40 -6.126508e-11 0.0020804433
-5.5982e-41 0.0070461584 -1.3575561e-08 0.008285283 -4.76814e-40 0.0019203135 5.26141e-40 0.005119236
0.015568364 0.007506712 0.0036297415 -0.007114133 -4.04974e-40 0.00019461478 -7.3348705e-09 5.20236e-40
0.0015049307 -1.1118678e-18 -9.7912e-41 0.0023912142 0.0020967796 -2.424446e-08 -1.5306465e-08 -2.6951001e-08
-7.519e-41 0.0042637233 0.0037815582 3.1888e-41 -1.9999732e-08 -1.3723571e-08 -0.0002879588 -0.021513203
-0.019468324 0.005106038

net.4.weight f4 [1, 50]
00000000: 0248 f4be 6894 cdbe 2b84 ce08 1c31 81be
00000010: 1594 bea0 7908 343a 2fb2 3e35 1e70 071e
00000020: 0a69 c2be ea72 973e 4aec 06a9 9abc 32b6
00000030: 7f7e f5be c88c 4431 1ea5 d53a 49c5 ebbe
00000040: d194 93a9 88b3 d53e dd84 babe ed4b f23e
00000050: 8e12 6637 4fd8 593e 758e 2419 99f5 9e3e
00000060: 7f5c eebe 9fcc e7be 8757 783e aa2c adbe
00000070: ef03 588b ee2c 4e3d 6dbe a4be 7fd4 ea24
00000080: eafa d9be 6e52 9a26 1051 8c21 f74b 8e3e
00000090: 01ad 3c3e cdaa 27bf 60bb bfbe 4d27 e1be
000000a0: 5472 c924 9644 8f3e f8ee b63e ab03 1824
000000b0: df94 40bf e942 8abe 2bd1 8dbe 3ae9 d7be
000000c0: 0a9e 06bf 35a2 aa3e
-0.47711188 -0.40152287 1.2429247e-33 -0.2523278 -3.2285244e-19 0.00068677176 7.1039807e-07 7.170026e-21
-0.37970763 0.2957986 -2.9958925e-14 -2.6633847e-06 -0.4794807 2.8601779e-09 0.0016299819 -0.46048954
-6.553927e-14 0.41738534 -0.36429492 0.47323552 1.3713388e-05 0.21273921 8.50737e-24 0.3104675
-0.46554944 -0.452733 0.24252139 -0.33823138 -4.1603046e-32 0.050335817 -0.32176533 1.01841306e-16
-0.42574245 1.0708239e-15 9.508226e-19 0.27792332 0.18425371 -0.65494996 -0.37447643 -0.43975297
8.7363534e-17 0.27982014 0.35729194 3.2962853e-17 -0.7522716 -0.27004173 -0.27698645 -0.42170125
-0.525849 0.3332688
