code/pretrained_models/reward_models/rastrigin10.pt (torch, 14967 bytes, 5 tensors)

net.0.weight f4 [50, 11]
-0.07000066 0.07736366 -0.2993237 -0.313842 -0.05550899 0.08492089 0.34948155 0.18097556
0.31199768 0.0037554551 -8.300093e-05 -0.035912573 0.29961476 0.056183264 0.094445266 0.27579665
0.0017937417 0.24758613 -0.29214716 -0.024216622 -0.11745528 -0.00029736437 -0.031378973 0.071222745
0.16753611 0.1889338 0.11885471 0.015715493 0.0800897 0.30810434 0.0024703622 0.22815134
-0.0007739051 -0.0010590361 -0.0030613088 -0.0022972573 -0.00043716113 0.001681969 0.0020104812 -0.0003581311
-0.001431301 -0.0004974996 0.0004795151 0.08214285 -1.93245e-40 1.85315e-40 3.94499e-40 7.22039e-40
1.8853e-40 -1.1204e-40 -6.7879e-41 1.28482e-40 -5.29062e-40 -2.2146e-41 -7.71632e-40 -0.026005806
0.024237838 0.32557106 0.11662831 -0.30958465 0.13364919 0.16617376 0.11150602 0.10640641
-0.32996956 -0.0022539613 4.7354602e-05 -2.0254174e-05 2.1037025e-05 -0.0001310112 -2.6951444e-05 0.00010999956
5.1588327e-06 -2.0583024e-05 1.39547055e-05 3.188368e-05 0.00040298468 0.08707674 0.13170218 -0.024897696
0.02822646 0.10476851 -0.13113756 0.04287093 0.118897565 0.14328703 0.00063515216 0.017523693
0.025076471 -0.04978082 -0.047548983 -0.03175724 -0.08936642 0.09255532 0.023670578 -0.09312755
-0.06740716 -0.032246623 0.060391467 -7.906e-41 -3.331e-42 1.02286e-40 -6.9608e-41 -3.148e-41
2.3148e-41 1.72944e-40 1.45766e-40 1.15907e-40 1.6973e-40 -1.17349e-40 -1.5181729e-05 -8.6642176e-05
-7.455656e-05 -9.741426e-05 1.1292497e-05 2.8923945e-05 -6.854126e-05 -0.00013220348 -7.705274e-05 1.85032e-05
0.001170556 7.1253e-41 -5.9856e-41 -1.6575e-41 -1.3345e-41 7.7922e-41 4.6347e-41 6.3011e-41
-6.7425e-41 2.8327e-41 -1.0078e-41 -1.7317885e-13 0.24438168 -0.0074658035 0.25377735 -0.1790821
-0.17790775 -0.16293964 0.06890466 -0.2936175 0.16578504 0.3787339 -0.0014707764 1.0433729e-21
4.2056305e-25 2.4717052e-26 -8.118817e-26 -6.616143e-22 3.4653986e-22 -1.6201868e-22 3.3518626e-26 -4.596277e-25
-2.1112788e-26 -1.0890318e-06 0.0042606387 -0.096300796 0.11157595 -0.10066492 0.095859714 0.48526993
-0.2670957 -0.20025341 0.17947651 0.008401532 0.00017019108 -0.0025116268 0.13305525 -0.028425729
-0.058000196 -0.18997917 0.25042272 0.14023577 0.028718289 -0.5274232 0.19786441 0.0016209963
1.70836e-40 -1.06721e-40 -6.363e-41 -1.11393e-40 -1.01668e-40 -1.16498e-40 -1.19049e-40 8.2232e-41
-3.298e-41 1.18345e-40 -4.754594e-31 -0.017201751 -0.094941795 0.21759318 -0.11907888 0.2507852
-0.036916934 -0.10457608 0.2803694 0.036392972 0.11919915 0.0009940059 6.383e-42 5.033e-42
3.4325e-41 3.328e-42 5.3e-41 1.0821e-40 -5.2502e-41 3.009e-41 8.502e-42 4.8566e-41
-7.476225e-10 -0.0001935908 -0.00016411094 -0.00027456423 7.914027e-05 0.0001233601 0.0005049557 -0.00025202663
-0.00019828822 0.00014127797 -7.5774675e-05 -0.00013002836 -1.3758287e-05 -5.3726875e-05 -5.349058e-05 -1.4806783e-05
4.851377e-05 3.4193177e-05 -9.7006405e-06 -1.5423431e-05 -1.1631951e-05 -6.9921475e-06 0.00077261735 -0.027520288
-0.041342646 -0.043067966 -0.0794346 -0.07239087 -0.013570988 0.011264178 -0.06542806 -0.01254815
-0.012627599 0.048519403 0.0001563095 -0.00013486235 -0.00023802345 -0.00036580977 -8.169274e-06 0.00031591256
8.605302e-05 -0.00041666403 -9.945603e-05 0.000120424476 0.003493122 2.1303487e-07 -2.7501674e-06 -3.0753263e-06
00000000: 825c 8fbd d770 9e3d f540 99be e6af a0be
00000010: 655d 63bd 01eb ad3d 3fef b23e a851 393e
00000020: 29be 9f3e 151e 763b c910 aeb8 1019 13bd
00000030: 1b67 993e 6c20 663d 856c c13d 3835 8d3e
00000040: fc1b eb3a 3887 7d3e 5094 95be f061 c6bc
00000050: 658c f0bd 92e7 9bb9 3d87 00bd 3bdd 913d
00000060: 968e 2b3e dd77 413e 196a f33d c7bd 803c
00000070: 1206 a43d dabf 9d3e cde5 213b 81a0 693e
00000080: e4df 4aba 5bcf 8aba 3da0 48bb 958d 16bb
00000090: c632 e5b9 8475 dc3a 47c2 033b 8bc3 bbb9
000000a0: 7e9a bbba a26a 02ba 6d67 fb39 833a a83d
000000b0: b01a 0280 9504 0200 b44b 0400 c0dc 0700
000000c0: 8c0d 0200 5238 0180 38bd 0080 2866 0100
000000d0: cfc2 0580 bc3d 0080 ff66 0880 210a d5bc
000000e0: 6e8e c63c 40b1 a63e d3da ee3d e181 9ebe
000000f0: 55db 083e 7429 2a3e 455d e43d 9beb d93d
00000100: c5f1 a8be 32b7 13bb 9e9e 4638 82e7 a9b7
00000110: ab78 b037 0d60 09b9 c915 e2b7 90af e638
00000120: 091a ad36 b5a9 acb7 011f 6a37 d7ba 0538
00000130: b047 d339 4a55 b23d f0dc 063e 41f6 cbbc
00000140: 2d3b e73c df90 d63d ed48 06be 6e99 2f3d
00000150: 9180 f33d d6b9 123e 5780 263a d98d 8f3c
00000160: 2c6d cd3c f9e6 4bbd b9c2 42bd e113 02bd
00000170: be05 b7bd a58d bd3d cde8 c13c a8b9 bebd
00000180: c40c 8abd 0915 04bd 0b5d 773d 63dc 0080
00000190: 4909 0080 221d 0100 0ac2 0080 c157 0080
000001a0: 8740 0000 19e2 0100 5696 0100 1a43 0100
000001b0: 23d9 0100 1f47 0180 08b5 7eb7 aab3 b5b8
000001c0: 405b 9cb8 e24a ccb8 e874 3d37 b3a1 f237
000001d0: cfbd 8fb8 1aa0 0ab9 6097 a1b8 5237 9b37
000001e0: 576d 993a a0c6 0000 dba6 0080 342e 0080
000001f0: 3325 0080 37d9 0000 3281 0000 a6af 0000
00000200: f4bb 0080 f74e 0000 181c 0080 68fb 42aa
00000210: 313f 7a3e b3a3 f4bb 1bef 813e 4c61 37be
00000220: 732d 36be a6d9 26be e31d 8d3d 0855 96be
00000230: 8ec3 293e 69e9 c13e 11c7 c0ba 89ab 9d1c
00000240: 7028 0217 2cc9 f414 1e03 c995 edf5 479c
00000250: 7278 d11b 5ade 439b e8f9 2515 753f 0e97
00000260: 4717 d194 d92a 92b5 d49c 8b3b 5a39 c5bd
00000270: ef81 e43d 6929 cebd 1952 c43d 4d75 f83e
00000280: c5c0 88be 3b0f 4dbe b1c8 373e 94a6 093c
00000290: 5275 3239 1b9a 24bb a33f 083e 13dd e8bc
000002a0: 9d91 6dbd e689 42be 6837 803e f799 0f3e
000002b0: 9e42 eb3c 3505 07bf f89c 4a3e 9c77 d43a
000002c0: 39dc 0100 7f29 0180 60b1 0080 8536 0180
000002d0: 691b 0180 c044 0180 dc4b 0180 3be5 0000
000002e0: ef5b 0080 e649 0100 9f4b 1a8d b0ea 8cbc
000002f0: d870 c2bd bfd0 5e3e a1df f3bd eb66 803e
00000300: 3636 17bd fc2b d6bd 948c 8f3e cc10 153d
00000310: af1e f43d 4e49 823a cb11 0000 080e 0000
00000320: af5f 0000 4709 0000 be93 0000 a52d 0100
00000330: 5b92 0080 e153 0000 b317 0000 6287 0000
00000340: 4281 4db0 a2fe 4ab9 3215 2cb9 63f3 8fb9
00000350: 1cf8 a538 3a5a 0139 015f 043a 7122 84b9
00000360: 97eb 4fb9 0424 1439 38e9 9eb8 3958 08b9
00000370: 65d3 66b7 cb58 61b8 135b 60b8 a66a 78b7
00000380: 447b 4b38 a56a 0f38 efbf 22b7 9161 81b7
00000390: d926 43b7 179e eab6 7989 4a3a 3a72 e1bc
000003a0: e856 29bd 0968 30bd 9cae a2bd aa41 94bd
000003b0: d958 5ebc 638d 383c 26ff 85bd c196 4dbc
000003c0: fde3 4ebc 48bc 463d 03e7 2339 d669 0db9
000003d0: ef95 79b9 28ca bfb9 c40e 09b7 11a1 a539
000003e0: 5d77 b438 b373 dab9 0d93 d0b8 668c fc38
000003f0: ddec 643b 94be 6434 848f 38b6 b461 4eb6

net.0.bias f4 [50]
0.034365315 0.043899823 -0.009587329 0.0005407995 1.54192e-40 -0.014772375 2.6867938e-06 -5.242866e-05
0.0005963724 -2.2548e-41 7.8819285e-06 6.1167e-41 0.010419016 -5.5141e-41 0.009844199 -0.0013028991
-3.5394e-41 -0.035227917 7.818e-42 8.446304e-39 5.167585e-06 0.00044383062 2.3197068e-05 2.643241e-07
4.677e-41 0.00016440214 -1.40156e-40 0.0069751814 0.00067162584 -0.009203916 4.390216e-05 0.019063493
-2.85173e-40 -5.742963e-05 -7.4102e-41 1.679924e-05 -0.0002254762 7.2678677e-06 5.4764e-41 0.00016296268
0.00010942882 -8.7189e-41 0.00086798053 0.00015277755 0.00042171354 6.6761095e-05 2.4252342e-05 0.0006762672
-0.00013691094 -3.6725e-41
00000000: a5c2 0c3d 4dd0 333d 2c14 1dbc 71c4 0d3a
00000010: d3ad 0100 d507 72bc c44e 3436 d8e6 5bb8
00000020: e055 1c3a db3e 0080 a03c 0437 82aa 0000
00000030: 85b4 2a3c b699 0080 9049 213c 0ac6 aaba
00000040: aa62 0080 264b 10bd cb15 0000 dcf8 5b00
00000050: 3865 ad36 f0b1 e839 5397 c237 6de8 8d34
00000060: 6082 0000 5d63 2c39 b386 0180 1090 e43b
00000070: 0c10 303a 06cc 16bc 9623 3838 0b2b 9c3c
00000080: f21a 0380 98e0 70b8 91ce 0080 18ec 8c37
00000090: ce6d 6cb9 82de f336 a998 0000 f6e0 2a39
000000a0: 277d e538 0cf3 0080 3089 633a e932 2039
000000b0: 6f19 dd39 1702 8c38 8271 cb37 8647 313a
000000c0: c08f 0fb9 6066 0080

net.2.weight f4 [50, 50]
0.1774097 0.15595375 0.12358411 0.02033552 -5.03533e-40 0.17079078 8.7511755e-05 0.070532285
-0.027239714 4.6973e-41 0.00026314298 -5.297e-42 0.17265397 7.9144e-41 0.18079111 0.17109534
1.9875e-41 0.09788314 7.0397e-41 -1.0302365e-06 0.00018733986 -0.01749899 0.0007821432 9.041347e-06
-1.8752601e-14 0.004651344 2.3106633e-34 0.15919425 0.02531118 0.1672 0.0014399982 0.15112177
1.71705e-40 0.022548007 2.0074e-41 0.0006078829 0.13055202 0.00026825198 -1.301802e-39 0.009256354
0.0040617795 3.4585e-41 -0.08821277 0.0058299005 -0.02900587 0.066700846 0.0015244347 -0.010226471
0.050126523 -4.0499e-41 1.377254e-38 1.0917613e-38 9.680997e-39 3.423097e-39 -1.7707e-41 1.0942007e-38
2.34647e-40 3.063702e-39 -1.761605e-39 2.3267e-41 -7.26964e-40 -1.727425e-39 1.147885e-38 -1.5285e-41
1.2747714e-38 1.2948044e-38 4.0467e-41 9.18033e-39 5.9456e-41 4.64005e-40 1.866988e-39 -1.371892e-39
1.94066e-40 4.62748e-40 -2.35313e-40 1.946891e-39 -2.53495e-40 9.487996e-39 4.271383e-39 1.1460779e-38
9.34582e-40 1.1169617e-38 1.88221e-40 4.99175e-40 -2.893e-41 4.93848e-40 7.752444e-39 -9.03489e-40
9.7415e-41 1.70235e-39 1.067543e-39 1.1262e-41 -6.643612e-39 2.436068e-39 -1.28133e-39 1.502527e-39
1.362655e-39 -1.199511e-39 3.193786e-39 -4.1729e-41 2.1314238e-37 3.95549e-40 -2.71779e-39 2.5620345e-34
-2.10471e-40 1.051463e-39 -1.40666e-39 1.3564027e-36 1.1121258e-38 2.456852e-39 1.240201e-39 4.647e-42
-2.925251e-39 6.7335e-41 -2.4203412e-38 -1.6677607e-37 8.2276e-41 1.888628e-39 5.1152e-41 9.104e-41
-3.76849e-39 -2.0110511e-38 -2.798626e-39 3.48064e-40 1.13462e-40 1.010511e-39 -2.7928e-41 2.1760555e-38
-8.577663e-34 4.075692e-39 2.452341e-39 -7.048921e-39 -2.47542e-40 -8.118487e-39 6.1685e-41 -3.0439e-39
2.5224284e-35 -2.308886e-39 8.2284e-41 -3.05974e-39 2.697753e-39 8.9898e-41 3.7815274e-37 -2.512928e-39
-3.184694e-36 8.863857e-35 -1.414067e-39 -2.4203434e-38 -5.901493e-39 5.736e-42 0.100812525 0.09558377
0.07018379 0.008217239 -1.96933e-40 0.0962038 3.4239118e-05 0.031210145 -0.017546367 -1.97285e-40
0.0001013276 -7.4601e-41 0.097366534 -1.6306e-41 0.102368444 0.09693087 6.3274e-41 0.06974489
2.2296e-41 -1.1440442e-09 7.530575e-05 -0.010452911 0.00030716235 3.53836e-06 -3.0476635e-22 0.001746424
3.22798e-40 0.09922623 0.010521536 0.09409301 0.00060450635 0.08267852 8.4029e-41 0.012632087
-2.1932e-41 0.00024514363 0.07171257 0.00010857585 -1.4409e-40 0.004029523 0.0016857962 3.7658e-41
-0.049672272 0.0024069548 -0.010491594 0.029285194 0.0007462973 -0.010228486 0.029807452 -4.5148e-41
5.005958e-39 2.947189e-39 -1.560672e-39 5.9454465e-36 1.1575e-41 1.766401e-39 2.35617e-40 1.5030085e-37
-5.657989e-39 8.83758e-39 5.29768e-40 3.8456e-41 -8.818134e-39 6.665e-42 -5.865898e-39 -5.05059e-39
-2.0748e-41 1.8674201e-37 -3.209e-42 9.62118e-40 1.816146e-39 9.423238e-37 1.220799e-39 1.47454e-40
5.112e-42 1.876896e-39 -5.76623e-40 -2.2850485e-38 -1.0785809e-34 5.879588e-38 5.79196e-40 -4.668489e-39
-3.9148e-41 -1.438614e-39 3.7276e-41 -1.029278e-39 1.3254978e-36 1.804881e-39 3.0979e-41 6.13349e-39
8.89527e-40 -5.3919e-41 -7.1951217e-38 3.015393e-39 -1.652591e-37 9.375035e-37 -3.502251e-39 -1.4454098e-37
-2.976711e-39 -3.1145e-41 -0.12265262 -0.11631564 -0.083432004 0.018003996 -2.63363e-40 -0.12096686
00000000: e3aa 353e 57b2 1f3e aa19 fd3d ad96 a63c
00000010: a57b 0580 c7e3 2e3e 8486 b738 3b73 903d
00000020: d225 dfbc f182 0000 74f6 8939 c40e 0080
00000030: 34cc 303e 9fdc 0000 4e21 393e 9e33 2f3e
00000040: 6737 0000 f576 c83d 3dc4 0000 a846 8ab5
00000050: a970 4439 0b5a 8fbc be08 4d3a 4ab0 1737
00000060: 8ee8 a8a8 4d6a 983b e691 9907 d103 233e
00000070: 6459 cf3c 7a36 2b3e 52be bc3a aabf 1a3e
00000080: a5de 0100 99b6 b83c f537 0000 555a 1f3a
00000090: 6eaf 053e 2ca4 8c39 e52c 0e80 f6a7 173c
000000a0: ad18 853b 6960 0000 e6a8 b4bd c008 bf3b
000000b0: b89d edbc 749a 883d 8acf c73a ee8c 27bc
000000c0: 7851 4d3d e570 0080 3df8 9500 dde1 7600
000000d0: ae6a 6900 3446 2500 5c31 0080 dd25 7700
000000e0: 1a8e 0200 5b5c 2100 a32e 1380 dc40 0000
000000f0: 7bea 0780 5ccf 1280 5dfe 7c00 9c2a 0080
00000100: 71cf 8a00 e1fd 8c00 ce70 0000 06f7 6300
00000110: bda5 0000 750d 0500 6754 1400 47f0 0e80
00000120: fa1c 0200 f409 0500 f58f 0280 2433 1500
00000130: a4c2 0280 ac50 6700 e182 2e00 fdcb 7c00
00000140: 3c2d 0a00 59a0 7900 af0c 0200 7f6f 0500
00000150: a550 0080 a660 0500 a96a 5400 8fd6 0980
00000160: 8e0f 0100 7689 1200 e09f 0b00 651f 0000
00000170: b057 4880 c486 1a00 d4f3 0d80 6f5c 1000
00000180: 87d6 0e00 c00f 0d80 fac6 2200 5374 0080
00000190: a40e 9102 a14e 0400 1898 1d80 c246 aa07
000001a0: b54a 0280 0d73 0b00 3251 0f80 abc7 e603
000001b0: 8b19 7900 b4c0 1a00 2d81 0d00 f40c 0000
000001c0: 69da 1f80 b4bb 0000 a2c6 0381 fb00 6382
000001d0: 5ae5 0000 ba90 1400 978e 0000 c8fd 0000
000001e0: 0409 2980 ecfb da80 6e79 1e80 43ca 0300
000001f0: 493c 0100 e500 0b00 da4d 0080 93f3 ec00
00000200: 5885 8e88 5f61 2c00 21b4 1a00 86c1 4c80
00000210: 0cb2 0280 0a67 5880 f4ab 0000 2825 2180
00000220: 841d 0606 3c24 1980 60e5 0000 4f51 2180
00000230: 3d60 1d00 99fa 0000 c0ad 0003 055d 1b80
00000240: 3f76 8784 49a4 eb06 d865 0f80 aac6 0381
00000250: f642 4080 fd0f 0000 cc76 ce3d 6cc1 c33d
00000260: 85bc 8f3d 99a1 063c f824 0280 7f06 c53d
00000270: f99b 0f38 6bac ff3c 66bd 8fbc f325 0280
00000280: d77f d438 f5cf 0080 1b68 c73d 742d 0080
00000290: 8ca6 d13d b183 c63d 62b0 0000 69d6 8e3d
000002a0: 273e 0000 7a3c 9db0 77ed 9d38 b042 2bbc
000002b0: a20a a139 9074 6d36 4f38 b89b 44e8 e43a
000002c0: d483 0300 1f37 cb3d 8562 2c3c d6b3 c03d
000002d0: bc77 1e3a 5b53 a93d 3dea 0000 d0f6 4e3c
000002e0: 233d 0080 9f86 8039 0ade 923d 37b3 e338
000002f0: aa91 0180 170a 843b eff5 dc3a fa68 0000
00000300: 2775 4bbd 00be 1d3b efe4 2bbc 81e7 ef3c
00000310: 2aa3 433a 6195 27bc c22e f43c db7d 0080
00000320: 9382 3600 9017 2000 85fe 1080 2ee4 fc04
00000330: 4420 0000 023c 1300 ce90 0200 3494 4c02
00000340: 2c9c 3d80 943b 6000 c7c4 0500 336b 0000
00000350: 5f05 6080 9412 0000 bddf 3f80 fdfe 3680
00000360: d639 0080 182e 7e02 f208 0080 fe79 0a00
00000370: adc6 1300 fd53 a003 174b 0d00 0b9b 0100
00000380: 400e 0000 0670 1400 6447 0680 dbd1 f880
00000390: 355e 0f87 c00e a001 904e 0600 d9d5 3280
000003a0: 216d 0080 45aa 0f80 e967 0000 3535 0b80
000003b0: 9285 e103 46a7 1300 5b56 0000 adc9 4200
000003c0: a4af 0900 4e96 0080 aede c381 b0d5 2000
000003d0: 64f0 6082 0982 9f03 da22 2680 2ebd 4482
000003e0: dc69 2080 d256 0080 4c31 fbbd e536 eebd
000003f0: 66de aabd 1e7d 933c 26de 0280 79bd f7bd

net.2.bias f4 [50]
0.0011448064 2.22831e-39 2.363671e-39 0.0005298882 2.392414e-39 0.0015807799 -1.767595e-39 -3.023119e-39
0.0010781543 0.00038752487 -3.2548e-40 -6.36366e-40 2.0124e-41 0.002659717 0.0016805899 1.177668e-39
-1.526671e-39 0.001907666 0.0009846982 0.0021556425 3.89603e-40 0.0005674479 -5.84352e-39 0.001505764
0.0008751233 0.0008699216 0.001179413 0.00092805 4.95978e-40 6.57257e-40 0.0010019217 -9.1952e-41
0.00071676885 -5.9009e-41 -1.48078e-40 0.0015268329 0.0012817037 8.13581e-40 0.0008340731 0.0008359059
1.44816e-40 0.0013037705 0.0015468387 -1.521835e-39 2.73011e-40 0.0006238856 2.75628e-40 1.258402e-39
6.75314e-40 0.0014896393
00000000: 540d 963a 9f43 1800 f4bc 1900 32e8 0a3a
00000010: 140d 1a00 2c32 cf3a 563f 1380 3aeb 2080
00000020: db50 8d3a b52c cb39 4e8b 0380 eeed 0680
00000030: 1938 0000 a64e 2e3b 3d47 dc3a dcd2 0c00
00000040: bd9f 1080 a60a fa3a fd10 813a ae45 0d3b
00000050: 0e3e 0400 c9c0 143a 5ba1 3f80 0e5d c53a
00000060: 8868 653a 730b 643a 8996 9a3a 6248 733a
00000070: 9666 0500 2a28 0700 ea52 833a 5300 0180
00000080: 8be5 3b3a 7ea4 0080 c89c 0180 0320 c83a
00000090: d7fe a73a efdb 0800 b3a5 5a3a b220 5b3a
000000a0: b093 0100 47e3 aa3a 4bbf ca3a 4292 1080
000000b0: 0bf9 0200 418c 233a 5700 0300 eab3 0d00
000000c0: 805a 0700 0040 c33a

net.4.weight f4 [1, 50]
-0.57098836 -3.517985e-38 6.836706e-27 -0.32875264 -1.5950671e-28 0.4083525 1.2898684e-36 -1.0457824e-27
-0.527122 0.11398062 6.84921e-40 4.5095513e-34 -9.882095e-06 0.45613793 0.41483504 -3.2348877e-34
5.8695045e-35 0.46939406 -0.481039 0.5291498 3.6335903e-34 -0.3545972 3.0779821e-30 0.37930223
-0.48140717 -0.46568027 0.33931342 -0.50485635 -5.90831e-40 -8.52656e-40 -0.4748888 9.644e-42
-0.3506302 5.694e-41 3.22056e-40 0.37855166 0.37942377 1.669374e-39 -0.44665328 -0.41229624
-2.95838e-40 0.32745415 0.3988893 -3.294203e-35 2.90383e-40 -0.37393495 2.611e-40 3.103244e-39
-3.1053e-41 0.40462297
00000000: 4b2c 12bf 8e89 3f81 386a 0714 4452 a8be
00000010: e332 4a91 9413 d13e b175 db03 f9b5 a592
00000020: 78f1 06bf ac6e e93d 4875 0700 05db 1508
00000030: 46cb 25b7 e98a e93e 4265 d43e c3fe d687
00000040: c709 9c06 6b54 f03e be4a f6be 5c76 073f
00000050: 567e f107 c48d b5be 30b7 790e e733 c23e
00000060: 007b f6be a56d eebe 7dba ad3e 443e 01bf
00000070: ff6e 0680 dc48 0980 a024 f3be e21a 0000
00000080: cd85 b3be ba9e 0000 c381 0300 86d1 c13e
00000090: d543 c23e 892d 1200 bdaf e4be 7e18 d3be
000000a0: ad38 0380 12a8 a73e 383b cc3e 5e26 2f86
000000b0: 7829 0300 6774 bfbe d7d7 0200 95ca 2100
000000c0: 9056 0080 be2a cf3e
