pretrained_models/reward_models/ackley10.pt (torch, 15884 bytes, 5 tensors)

net.0.weight f4 [50, 11]
000000 53 aa d0 bd ff 25 43 be 89 33 8d be 97 b3 93 bd
       -0.10188737 -0.19057463 -0.2757838 -0.072119884
000010 4d 8b e8 bd af ad d8 3d b2 2f 28 3e ac da 4e 3e
       -0.113546945 0.105800025 0.16424444 0.20200604
000020 69 50 38 3d de c4 81 3b d4 26 fe 3b 20 82 d9 bb
       0.04499856 0.003960236 0.0077560935 -0.0066378266
000030 34 f7 38 3e e4 d6 22 3d 32 8a a3 3d b7 0e 73 bc
       0.1806305 0.039755717 0.07985343 -0.014835051
000040 7f 05 6b bd 5e c7 33 3e 1d 8f 6f be fb 23 ab bd
       -0.05737829 0.17556521 -0.23394437 -0.08356472
000050 9d 78 76 be e5 26 27 3d 67 d1 1a be f4 98 8c bd
       -0.24069448 0.040808577 -0.15118943 -0.06865111
000060 2d 6e f2 3d 90 cd 06 3e 83 40 16 3e 71 f2 da bc
       0.118374206 0.13164353 0.14673047 -0.026726933
000070 14 6b 39 3e 3d d1 7e 3d e5 e9 35 bb 4c 49 80 3e
       0.18107253 0.062211264 -0.002775782 0.2505592
000080 00 6d 95 3c 6d ba c8 3c a0 70 eb bd c9 0d 06 3e
       0.018240452 0.024502957 -0.11496091 0.13091196
000090 a8 fb 21 3e b2 b3 02 bc a1 d5 04 be 01 92 20 be
       0.15818655 -0.007977413 -0.12972118 -0.15680696
0000a0 05 19 11 3c 79 2f 54 be 5b d2 bb bd 80 50 13 3e
       0.008856063 -0.20721234 -0.091709815 0.14386177
0000b0 17 28 38 3e 1f de 74 3c 06 8e 18 3d 90 76 3e be
       0.17984043 0.014945536 0.03724482 -0.18599916
0000c0 6c ac 02 be 41 b9 ea bd 50 a9 1f bd dd f7 14 bd
       -0.12761086 -0.11461116 -0.03897983 -0.036369193
0000d0 01 31 b9 bd ab 05 1b be 09 97 3b be 05 9c 5a be
       -0.0904255 -0.15138881 -0.18319334 -0.21348579
0000e0 6e fc 0d bd 0f 63 cc 3d 00 eb 3c 3c 62 33 e2 bd
       -0.034664564 0.099798314 0.011530638 -0.11044957
0000f0 83 52 37 3e 2e 12 9f 3d c0 08 b4 3c 5e 5a 08 3e
       0.1790257 0.077671394 0.021976829 0.13315722
000100 2b ac 75 be 7a b3 2e bd 29 92 17 be d9 ab 18 3e
       -0.23991458 -0.04265163 -0.1480185 0.14909305
000110 4f 3b de 3b 8c e0 c4 bd a3 05 42 be dc 9c 71 3e
       0.0067819725 -0.096131414 -0.18947463 0.23594993
000120 31 44 1d be 4b 16 13 be 48 d0 41 be 0d 04 90 3d
       -0.15358044 -0.14363973 -0.18927109 0.070320226
000130 7e 24 c0 bd 1a 3a 05 3e 6e 7a ce 3d 95 3d 07 be
       -0.0938196 0.13010445 0.10081945 -0.13207085
000140 a4 8d 74 be 97 77 9c 3d 63 22 13 be 18 95 4e 3e
       -0.23882157 0.076399975 -0.14368586 0.20174062
000150 50 16 0d bb 7b f6 0e 3e 12 1f c0 bd 30 61 68 3d
       -0.0021528192 0.13961212 -0.09380926 0.05673331
000160 62 cf f3 3c ca 75 90 bd 75 04 d0 3c bb f7 85 3e
       0.029761974 -0.070537165 0.02539275 0.26165566
000170 3a 50 14 be ac 76 d3 3c 27 54 64 bd 6d c4 e7 bc
       -0.14483729 0.025813423 -0.055744316 -0.028291905
000180 08 58 fd bd f7 2a 10 bd dd 04 9a 3d ab 14 46 3e
       -0.12370306 -0.035197224 0.07520459 0.19343822
000190 a7 72 8e 3d b3 9b 81 3d f6 0f 4e 3e c8 d4 9f bd
       0.06955462 0.063285254 0.20123276 -0.07804257
0001a0 e0 d2 b6 3d 20 29 b3 3d e1 8f 23 3d 0c b3 f6 bd
       0.0892694 0.08748078 0.039932135 -0.12045869
0001b0 2c ee fb 3c b4 9f 1f bd 9f e1 7b 3e 39 a7 32 3d
       0.030753218 -0.038970664 0.24597786 0.043616507
0001c0 ef 71 b1 bd f2 7a 3d 3e 0a 24 bd 3c 17 7a 77 bd
       -0.08664309 0.18503931 0.023088474 -0.06041917
0001d0 f2 ac 20 be ab 8b 00 3e 83 bd 3b 3e 83 9f 24 3c
       -0.15690973 0.12553279 0.18334012 0.010047796
0001e0 31 39 49 be f7 a6 63 bd 18 a5 67 3e f4 41 9f 3d
       -0.19650723 -0.055579152 0.22621572 0.077762514
0001f0 0b 16 0d be 3c c6 0a 3e e5 b7 ad 3c 3f c7 78 3c
       -0.1377794 0.13552183 0.021205852 0.015184223
000200 35 8f 98 3d fc 0b 5c be 2f 99 12 3e 75 b0 9d bd
       0.074491896 -0.21488947 0.14316247 -0.07699672
000210 4b 99 23 3e ef f2 73 bd 0d 04 58 3e b7 65 5d be
       0.15976445 -0.05955785 0.21095295 -0.21620832
000220 c5 21 38 be ae 81 42 bd ba 95 96 bd 27 4d 6c be
       -0.17981632 -0.047486953 -0.07352777 -0.23076306
000230 59 31 54 3e af 12 42 3e 1c 62 93 3d b5 03 fe 3b
       0.2072195 0.1895244 0.07196447 0.0077519068
000240 79 1e 43 bd a7 9e 10 3e c4 a6 34 3b 2f f6 de bd
       -0.047636483 0.14123021 0.002756522 -0.108867995
000250 c1 19 f9 bc a8 aa 5b 3d 7a 89 7f bd 94 9b 65 be
       -0.030407788 0.053629547 -0.062386967 -0.2242263
000260 11 52 f4 3d 1e c3 cc bd d1 7d d9 bd a1 17 4f 3e
       0.119297154 -0.09998153 -0.10619701 0.20223857
000270 da 6e 0e bb d8 5f e3 3c 3a b1 43 3d 84 62 74 3e
       -0.0021733553 0.027755663 0.04777644 0.23865706
000280 de 99 3b be 3c 01 97 bc d3 76 cb 3d 12 1c 2c be
       -0.18320414 -0.018433206 0.09934773 -0.16807583
000290 6c aa 8f bd 7b 3d 96 3d 73 56 88 bd 90 90 06 3d
       -0.07014927 0.07335945 -0.06657114 0.03285271
0002a0 3f 18 cd bc 25 26 26 be 4b bb ad 3d 89 d8 78 be
       -0.025035976 -0.16225488 0.08482989 -0.24301352
0002b0 e3 86 02 3e 97 6d 61 be 1c 20 68 3d 0a fc 96 3c
       0.12746768 -0.22014461 0.056671247 0.018430728
0002c0 9d 14 ea 3d 4c ed 2e 3d b7 e2 0c bd 12 0e 22 3e
       0.11429713 0.042706773 -0.0343959 0.1582568
0002d0 75 c1 e7 3c 59 05 3f be c4 03 2b 3e df 08 18 3e
       0.02829049 -0.18654384 0.16700655 0.14847134
0002e0 70 ff e2 bc 30 58 22 be 44 69 c3 bd fb 36 d7 3d
       -0.027709693 -0.15853953 -0.09541562 0.105085336
0002f0 94 aa d6 bd 6a fd 57 3e d9 dc 51 be 36 99 f7 3d
       -0.10481754 0.21092764 -0.20494403 0.120897695
000300 9c 24 59 3d e7 65 b7 3b 6e 07 68 3d 94 f2 95 bd
       0.05301343 0.0055968645 0.05664771 -0.07321659
000310 cd bf 14 3c d5 3d 4c 3d 65 4d 42 3c 03 1a a9 3d
       0.009078932 0.049863655 0.011859273 0.082569145
000320 bd 62 2d be 6d 4a fe 3b 9e 32 cd bd 62 26 22 3e
       -0.16932197 0.007760337 -0.1001942 0.15834954
000330 43 0b 3b 3d 34 20 09 3e f7 32 d8 3d 1b b2 34 3d
       0.045665037 0.13391191 0.10556596 0.044115167
000340 3b c7 e5 bd 11 c8 34 bd 48 a7 2f bc 20 3f 43 bb
       -0.11219641 -0.04413611 -0.010721035 -0.0029792264
000350 62 6d 0b bc ba 4b f5 3d d9 a7 e7 3d 71 2c 6b bd
       -0.008509966 0.11977334 0.11311311 -0.05741543
000360 f7 e0 d8 3d 42 a6 33 bd 86 9e c1 bd 5a a2 b6 bd
       0.10589784 -0.043859728 -0.09454064 -0.08917685
000370 df 4e 15 be 2a ae 86 bc d5 29 3d be 49 21 16 3e
       -0.14580868 -0.01644047 -0.18472989 0.14661135
000380 c1 20 02 be 1d 54 87 be 1d d6 ce 3c 43 0d 56 3e
       -0.12707807 -0.2643136 0.025248582 0.20903496
000390 aa a7 1e be 68 c2 dc 3d 2e af ba bc c1 89 31 be
       -0.15493646 0.107792675 -0.02278861 -0.17337705
0003a0 5c 47 3a 3c fa ba 10 be 32 df b1 bd aa d6 51 be
       0.011369552 -0.14133826 -0.08685149 -0.20492044
0003b0 62 a4 07 be 11 62 0a 3d f4 9b 8f 3c bb 59 0e 3e
       -0.13246301 0.03378493 0.017530419 0.13901417
0003c0 f4 2a 99 3d 28 0f 0c 3e 36 f7 ce bd 9f c3 87 bd
       0.07478896 0.13677657 -0.101057455 -0.06629109
0003d0 c7 d2 bf 3c cf b4 9f bd e6 01 96 3d e8 15 40 3d
       0.023415936 -0.077981584 0.07324581 0.04689589
0003e0 a1 f1 69 3d 4b a5 6b be 2a 47 37 be a2 90 33 be
       0.0571152 -0.23012273 -0.1789824 -0.17535642
0003f0 c8 49 38 be 7e c1 29 be bc e5 a6 3d b8 fc 8c 3d
       -0.17996895 -0.16577718 0.08149287 0.0688414

net.0.bias f4 [50]
000000 ac e8 98 3b 07 fb 2f bb f0 70 2e 3b 44 83 67 3b
       0.0046664085 -0.0026852505 0.002661761 0.0035326043
000010 d5 89 70 bb eb 6e bb 3a f3 92 cb 3b 96 f8 33 bb
       -0.0036703248 0.0014300024 0.006212586 -0.0027461401
000020 34 b9 16 bb e8 a5 0d bb ea 27 4b ba a4 93 3e 3b
       -0.0022998573 -0.002161378 -0.0007749783 0.00290797
000030 0d 62 1b 3b 39 21 03 ba 02 34 be ba f3 e3 c7 3b
       0.0023709566 -0.0005002204 -0.0014511349 0.0061001717
000040 0f 8a 52 bb 13 d4 9e ba df 2d 1e bb 75 78 d9 ba
       -0.0032125746 -0.0012117646 -0.0024136228 -0.0016591685
000050 cb 92 ba ba 22 b3 7d 3b 7a 2f c4 bb 05 60 e3 b9
       -0.0014234422 0.0038711508 -0.005987105 -0.00043368354
000060 77 29 1b bb ae f7 4e bb 21 8f 31 ba a0 35 48 b9
       -0.0023675838 -0.0031580734 -0.0006773342 -0.00019093463
000070 a6 9e 4a 3b 3c 8a 2f b9 ff 7c 14 bb 03 33 6a 3b
       0.0030917316 -0.00016740797 -0.0022657511 0.0035735972
000080 a9 2f 1f 3b 13 a7 19 3b 1f 88 f8 3b 09 e2 27 bb
       0.0024289882 0.0023445531 0.0075845863 -0.0025616905
000090 dc 0f 6e 3b 8c 81 4f ba 4b 90 9c 3a dc 58 02 3c
       0.003632537 -0.00079157273 0.0011944858 0.007955756
0000a0 02 3b a2 bb 87 52 f0 ba e9 92 9a 3b 75 49 fb ba
       -0.004950882 -0.0018335142 0.00471722 -0.0019171672
0000b0 66 31 a4 3b 7c f7 51 3a 29 e9 35 bb 1a 78 d5 3a
       0.0050107716 0.00080095953 -0.0027757382 0.0016286403
0000c0 6a d2 c6 3a 08 2b 82 3a
       0.001516891 0.0009931037

net.2.weight f4 [50, 50]
000000 aa ba fa 3d 1b 79 b6 3d f5 62 cd 3d a1 0c ce 3d
       0.122426346 0.08909818 0.1002864 0.100610025
000010 ba ee 5b 3d 42 2b 8c 3d 18 7d 94 3d 80 f9 ca 3d
       0.053694464 0.06844188 0.07250422 0.099108696
000020 ae 7b ce 3d 38 59 58 3d 53 ea a7 3d 35 d9 c5 3d
       0.10082184 0.05281946 0.08198991 0.096605696
000030 ab 85 f2 3d 2c 53 a3 3d db c0 ab 3d 40 f8 0f 3d
       0.118419014 0.07974848 0.08386394 0.03514886
000040 9a d2 8c 3d c4 8e 0c 3c 95 bb 11 3d 0c 20 5f 3d
       0.068761066 0.00857896 0.035579283 0.05447392
000050 ed 0d 24 3d d1 13 82 3d 89 9b 51 3d 66 68 94 3d
       0.040052343 0.06351436 0.05117372 0.07246475
000060 cc 7a 07 3c 23 0c c3 3d e5 18 29 3d ba 4f 4e 3d
       0.008269023 0.09523799 0.041283507 0.050369002
000070 8d a7 be 3d 49 63 95 3d 97 1e a6 3d 4b ca 7e 3d
       0.093093015 0.07294328 0.08111303 0.06220464
000080 d8 3c 92 3d b1 a5 5f 3d 81 2e 9e 3d cf 5c c4 3d
       0.07140511 0.054601375 0.07723714 0.09588014
000090 9d ad b2 3d 86 df 8d 3d 36 09 09 3e 1b 40 fa 3d
       0.0872452 0.06927399 0.1338242 0.122192584
0000a0 50 c5 61 3d 18 4c 0b 3d 69 26 97 3d 6a 18 14 3d
       0.055119812 0.034008116 0.07380373 0.036156096
0000b0 c6 8d 51 3d da 64 17 3e ef a8 05 3e 45 c3 f8 3d
       0.051160596 0.14784566 0.13052724 0.1214662
0000c0 35 54 99 3d 5f 35 f0 3d af 03 c2 3a 37 62 f5 bc
       0.07486764 0.1172893 0.0014802123 -0.029954059
0000d0 2d e1 18 3c d6 4e 16 3c a9 e1 d2 bb 01 be 06 bc
       0.00933103 0.009174069 -0.006435592 -0.008224011
0000e0 e8 28 0d 3d d4 c8 07 bc 5a e7 5f 3b 6d 11 b6 bc
       0.03446284 -0.008287627 0.0034164996 -0.022225106
0000f0 31 7d a9 3b e8 d5 c7 3c 35 71 34 3d ab 43 cf 39
       0.0051723947 0.02439399 0.044053275 0.00039532533
000100 1c 37 1a 3c 90 20 f5 bb 7b 8e 85 3c 9a 61 ac bc
       0.009412553 -0.0074806884 0.016303292 -0.021042634
000110 07 d5 5d bc d7 c4 31 bb cb 45 a4 3c 7a 98 99 bc
       -0.013539559 -0.0027125382 0.020052811 -0.018749464
000120 13 27 65 bc a7 6a 8b 39 b7 04 2f bc e3 48 a1 bc
       -0.013986367 0.00026591608 -0.010682276 -0.019688075
000130 89 60 36 bc 54 6e a7 3c 64 35 d7 bc 38 a0 15 bb
       -0.011131414 0.02043835 -0.026270576 -0.0022831094
000140 fb e7 9b bb ba cb fc 3b 61 0a 11 bc d5 c6 66 3b
       -0.004757879 0.007714716 -0.008852572 0.0035213728
000150 c9 a5 44 bc 34 75 7b 3b 27 c8 f5 3c 75 00 bd 39
       -0.012002417 0.003836942 0.030002667 0.0003604923
000160 da df b7 bc ad 8c 7f bc 1a bf 2e 3c 6b 81 cc bb
       -0.022445608 -0.015597505 0.010665679 -0.0062410138
000170 bc ea 90 bc 89 aa be bc 5b b8 45 3d 4a 81 c7 bc
       -0.017690055 -0.023274677 0.04827152 -0.024353642
000180 de 4a 5a 3c 82 ff d4 bb 4b c7 05 bc 0b 7e c9 3b
       0.013323514 -0.0065001855 -0.008165191 0.0061490587
000190 0e 56 bf ba ec 28 18 bb 99 08 19 bb c0 f7 74 bb
       -0.001459779 -0.002321775 -0.0023351072 -0.0037379116
0001a0 7e 4a 5b 3b bc 94 4a ba ba a7 84 3b a3 99 a5 3a
       0.003346115 -0.00077278516 0.004048315 0.0012634288
0001b0 a8 33 81 bb b3 15 f9 ba d7 2a 07 bb 42 39 2f 3c
       -0.0039429255 -0.0019003659 -0.00206249 0.010694804
0001c0 87 0b 4d 38 5d ea 17 ba c9 97 a1 bb bb eb 85 34
       4.8886544e-05 -0.0005795116 -0.0049314243 2.4944697e-07
0001d0 11 19 68 bb 8c e0 4a bb d2 4c d6 3a 0f 59 c9 ba
       -0.0035415331 -0.0030956594 0.0016349799 -0.0015361625
0001e0 68 a4 fd bb ee e2 89 3b 21 85 02 bb c1 ae d7 38
       -0.007740546 0.0042079603 -0.0019915777 0.00010284549
0001f0 ae b4 40 bb 00 df a9 3b 8a 73 03 bb 15 a9 8a ba
       -0.0029404568 0.0051840544 -0.002005788 -0.0010578955
000200 c4 a3 cb bb 4d 68 a4 ba e0 b6 40 3b 96 0f d8 b9
       -0.0062145907 -0.0012543291 0.0029405877 -0.00041210343
000210 51 a7 09 3a ca c2 96 bb 10 c1 93 3b 7d 10 f5 b9
       0.00052510673 -0.0046008574 0.004509099 -0.00046742326
000220 10 95 1d bb c4 f6 f9 ba 34 cc 5e bb 44 56 68 ba
       -0.0024045147 -0.0019070734 -0.0033996226 -0.0008862952
000230 69 6d 04 3b d1 60 14 bb 23 c7 43 3b ee 12 99 3b
       0.0020206815 -0.0022640715 0.0029873333 0.004671446
000240 e4 fd 52 bb 4f 68 03 3b ee 58 0f bb 98 b9 43 b9
       -0.0032194788 0.0020051186 -0.0021873075 -0.00018665788
000250 9d e8 6e bb 57 3b b6 bb 0c cd b0 3b 7d 29 56 3d
       -0.0036454566 -0.005561273 0.0053955372 0.05228566
000260 e4 f8 bc bc dc 64 05 3d 8c ce 4d bc b4 44 61 3d
       -0.023067899 0.03256689 -0.012561452 0.05499716
000270 f1 46 d7 3c 45 4b 17 bc 53 07 6c 3d fd d4 1a 3c
       0.026278945 -0.009234254 0.057624172 0.009450194
000280 44 18 fd 3c ab 60 be bc d4 26 45 bd 67 8b 75 3c
       0.03089536 -0.023239454 -0.048132733 0.014986849
000290 92 f5 ee 3c ca d2 81 3c 1b 01 f0 3c e2 be 8d bd
       0.029169831 0.015847582 0.029297402 -0.06921174
0002a0 18 ab 41 3c 8e 28 f2 ba a9 0d 90 bc ca da 20 3d
       0.011820577 -0.0018475221 -0.017584639 0.039271154
0002b0 e7 64 c5 bb e9 80 6a 3c 72 8a 48 bc 1f 55 fd 3c
       -0.0060239914 0.014312961 -0.012240039 0.030924378
0002c0 9f a8 92 3d 72 85 82 bc fc a7 dd bb ff 18 14 bc
       0.07161068 -0.015932772 -0.00676441 -0.009039163
0002d0 db 8d 15 3d c6 2b 60 3c ef 82 46 3c 26 2e 0b 3b
       0.036512237 0.013682311 0.012116178 0.0021237223
0002e0 93 40 1e bc 3d c5 8c 3c e0 e2 df 3c 79 70 1b 3c
       -0.00965895 0.017183894 0.027329862 0.009487265
0002f0 d4 76 1b 3d bf f7 f2 bc 76 16 44 3c 2c b8 67 3d
       0.03795512 -0.02965915 0.011968246 0.056572124
000300 cf 14 f4 bc ae 26 97 3c ab db 58 3a 91 80 9d 3d
       -0.029795079 0.018451061 0.0008272479 0.07690538
000310 c4 f8 55 bc bd f9 88 bd 64 5e 33 3d 13 9c 40 3d
       -0.013059799 -0.06688259 0.04379119 0.047023844
000320 f7 d8 60 ab fe 0f 58 ab 67 e1 27 a1 f2 f8 82 aa
       -7.9881886e-13 -7.676081e-13 -5.688012e-19 -2.326538e-13
000330 56 ae d0 a4 de e7 19 a6 97 8b 8d ab ad 85 44 ac
       -9.050096e-17 -5.3396777e-16 -1.0057397e-12 -2.792748e-12
000340 ca 82 55 ae 5a aa bf ab 96 35 9b 9d 54 3f a1 a3
       -4.8546757e-11 -1.3618648e-12 -4.1083565e-21 -1.7482475e-17
000350 bd 4e 9e ac 43 d6 d7 aa d3 b2 b9 a6 08 df 25 ad
       -4.499372e-12 -3.8340346e-13 -1.2885424e-15 -9.428687e-12
000360 ed 30 4e 8d c5 cf 6c a2 53 f0 4a aa 43 b5 f0 08
       -6.3537543e-31 -3.2093956e-18 -1.8024583e-13 1.4487089e-33
000370 6b f0 18 ab 3e f2 89 aa d3 4b 73 98 7b e0 0f 19
       -5.4334895e-13 -2.4504178e-13 -3.1445295e-24 7.43826e-24
000380 1a 42 1e a9 50 9d b8 ad 4f a4 2f a7 d1 69 4d a5
       -3.514038e-14 -2.0988239e-11 -2.43752e-15 -1.7816768e-16
000390 8b 0e 3d ad 1f 2c d7 a5 e6 5d 8a a9 8e da 5e ac
       -1.0746635e-11 -3.7326452e-16 -6.14472e-14 -3.166942e-12
0003a0 d9 82 24 84 87 42 01 ac a7 31 e6 a9 0e b8 08 00
       -1.933819e-36 -1.8368933e-12 -1.0222665e-13 8.0071e-40
0003b0 fd 19 32 ab 97 1e a3 8c 51 4b 9f a3 b7 c0 38 a1
       -6.327437e-13 -2.5132537e-31 -1.7270712e-17 -6.259668e-19
0003c0 6a 93 47 99 fe c7 18 2c 6c c6 8d ab f9 72 b7 21
       -1.0317829e-23 2.1711517e-12 -1.0073726e-12 1.2430995e-18
0003d0 5d 3e b8 aa ae 8d 35 b0 a8 23 f6 a8 f6 a2 95 ac
       -3.272824e-13 -6.6048755e-10 -2.732695e-14 -4.252927e-12
0003e0 9a 87 6e a6 4c 62 db 1b 7f 5d 03 3c 05 b4 44 bc
       -8.275661e-16 3.6294034e-22 0.008017897 -0.012005811
0003f0 00 6f ea 3a 99 bd 02 3c 1d 90 f8 bb 65 c8 20 bc
       0.0017885864 0.007979774 -0.007585539 -0.009813403

net.2.bias f4 [50]
000000 93 7f 06 33 bf ee 37 ba 88 3c 98 b9 b4 28 09 bc
       3.1315334e-08 -0.0007016472 -0.00029036799 -0.008371521
000010 2a 4d 1b 80 78 22 27 ba 54 53 0e 33 88 de 1a b8
       -2.50724e-39 -0.00063756807 3.3137738e-08 -3.692371e-05
000020 73 af 9b bb 64 21 8e 38 01 dc 00 00 38 a4 1e bb
       -0.00475114 6.777307e-05 7.8923e-41 -0.0024206769
000030 65 27 33 33 08 ba 01 a6 03 50 00 80 b2 16 fb bb
       4.1712514e-08 -4.5007985e-16 -2.8703e-41 -0.0076626176
000040 43 d4 78 2a a7 2e e3 39 a5 d0 21 bc 95 53 34 3a
       2.2100468e-13 0.00043331573 -0.009876405 0.000687891
000050 e6 61 18 bc 7a 49 01 80 75 7a 86 2f bd c8 e5 39
       -0.009300685 -1.18194e-40 2.446147e-10 0.00043827845
000060 84 e9 05 33 c3 81 0a bc be c4 33 2f ef 2e 2e bc
       3.1178857e-08 -0.008453789 1.6349852e-10 -0.010631307
000070 26 cf d0 39 fa 21 00 00 32 3c 80 bb 14 af 6f 37
       0.0003982719 1.2188e-41 -0.003913426 1.4286274e-05
000080 c9 13 10 33 c8 20 4f b9 34 50 29 bc 3f 14 3c 32
       3.3545607e-08 -0.0001975327 -0.010334063 1.0947644e-08
000090 e1 24 01 00 7c 44 35 33 61 fc 55 32 f9 c4 db bb
       1.05065e-40 4.2204633e-08 1.2455616e-08 -0.0067068306
0000a0 9f 4a b7 bb 3b 1a 00 00 60 9f d2 06 d0 e3 14 bc
       -0.0055936123 9.41e-42 7.92274e-35 -0.009087518
0000b0 d5 68 85 bb 2b 90 66 bb 1c c0 99 32 34 58 8b bb
       -0.004071335 -0.0035181146 1.7898905e-08 -0.004252458
0000c0 ea 39 46 bc f9 74 50 20
       -0.012098769 1.7656988e-19

net.4.weight f4 [1, 50]
000000 7b 5a e5 be 89 a5 d4 bd e7 d5 c3 3c cc 6d 38 be
       -0.44795594 -0.10383136 0.023905708 -0.18010634
000010 eb ce d8 32 e5 de 42 bd fb 67 14 bf 16 41 a5 3c
       2.5239805e-08 -0.04757585 -0.5797116 0.020172637
000020 4c 02 89 be 8d 9a bf 3b 95 87 f3 b8 ff 0e b0 bd
       -0.26759565 0.0058472813 -0.00011612397 -0.0859661
000030 bf d5 1e bf 6a 7d 64 3a 29 28 9b b3 0f 93 79 be
       -0.620449 0.0008716198 -7.225055e-08 -0.24372505
000040 c5 5a 18 2e 79 b3 86 3c ca 47 7f be 9d 22 ff 3c
       3.4641418e-11 0.016443001 -0.24929729 0.031144435
000050 58 d6 ae be ef d6 84 b8 d1 92 92 36 fc 5f a9 3c
       -0.34147906 -6.334285e-05 4.3682307e-06 0.020675652
000060 dc fb e9 be c3 4b 90 be c9 0e 37 3b c2 a2 63 be
       -0.45699966 -0.28182802 0.0027932397 -0.22230056
000070 2c c4 df 3c 60 74 7e b8 fd 0a 2c be 0f bf ee 3c
       0.027315222 -6.06667e-05 -0.16801067 0.029143838
000080 a3 ef 0c bf cd e3 0b bc cd e4 80 be 50 57 9e be
       -0.55053157 -0.008538199 -0.2517456 -0.3092599
000090 81 cb 6d 3a ec 97 1f bf 51 86 fa be fa 7d 80 be
       0.0009071157 -0.6234119 -0.489306 -0.25096112
0000a0 66 f6 89 be 9e 6d 17 3a 9e 50 ff 36 71 55 93 be
       -0.269458 0.0005776527 7.6089773e-06 -0.28776124
0000b0 2b 92 60 be 06 68 52 be a0 01 b9 be 08 62 26 be
       -0.21930759 -0.20547494 -0.36134052 -0.16248333
0000c0 a6 21 9e be 8f e7 7b ac
       -0.30885047 -3.5797786e-12
