pretrained_models/reward_models/ackley2.pt (torch, 14272 bytes, 5 tensors)

net.0.weight f4 [50, 3]
00000000: a849 2abe e37b 393d 3064 753d 71b9 8a3d
00000010: b59a 4bbe a775 0c3d 2320 5abd 116e 99b9
00000020: 3e6b 0abd 5213 0000 6c87 0080 94fb b286
00000030: 8049 b03d 796a 753e e5c3 57be ad4a f5bc
00000040: 2b5f 93be a31c e3bd 01a9 80be 66e9 5b3d
00000050: c34a 9e3d 8fa7 9c3e da88 d83d 223d 57be
00000060: 2947 95bc a856 eb3e 02d9 adbe 6aef 0539
00000070: 6a20 3fba 2b07 f7b9 b26e a23e 765e c8be
00000080: eb9e 9bbc 3e60 94be 60f0 353e 1ad4 04bc
00000090: be35 643d b9e9 06bf d6f4 2d3e 7c28 41be
000000a0: 5a9c 6b3d f80f a03d a021 a13c 48f4 423e
000000b0: 397f 10be 8416 3bbc 6a89 83bd 899b e93c
000000c0: df34 cc3d 61bf 31bc d656 c6bc c63e 9b3d
000000d0: 5050 943d a855 95bd 800c 0000 a41f 0000
000000e0: 7e54 0580 1b20 81be 48fd cdbd e522 c4bc
000000f0: 2478 2d3c b89a 913d ea42 1d3e 2601 543d
00000100: fe3b 3e3e 3a13 a13e 8843 ebbb c341 f8ba
00000110: 0715 6d3d 5364 ab3d 5728 9e3d 1abe 14bd
00000120: 9840 a93b cc1f f33c 558b 68bc d36e 07bd
00000130: a44c 81bc 59a4 bdbc d6b9 2e3e a893 8cbe
00000140: 1417 b6bb 6418 14bd 1e86 a8bd 1c2a 523e
00000150: 031b 243e b2e1 b43d 8940 09be 4a9b 5ebb
00000160: 392a 853d 6efe 55bd 9144 f5bd 1d2a 603d
00000170: d6a7 893c c62f 87be e817 9cbe 6a5e 573e
00000180: b851 bfbe 4e34 4cbd cace 173e 9d58 b53e
00000190: 497c 1a3d ad02 7cbe 8611 893e 0dcb 753e
000001a0: 19de 7abe 490c 1532 2ce1 5fb3 dbbf 10b3
000001b0: 68b5 16bc 9624 8b3e d677 19be f41e f4bd
000001c0: 9dd1 26bd ce01 3f3d e503 83bc a1eb 6dbc
000001d0: 1657 873e 52cc c13d 2ce6 8dbe fdfc a6bd
000001e0: 7b77 b23e 25e5 dabd 7bdd 1fbe d131 7bbd
000001f0: ebed 513e 89ac 9abc 1307 f93d d538 513d
00000200: 8e4e 4a3e f4ef 48be 241b 8a3d 6621 163b
00000210: 7f8c 003a 345e 56bd c6e3 d6bc 562b 8c3e
00000220: fd7e ea3d 915d 513e d14b 9bbe de7c 343d
00000230: 8635 0dbe c141 ba3d b98c 793d 09d1 4b3e
00000240: e51e 93be f7ea 05bd f478 483e 27ed b43d
00000250: 0eb6 563e 4c60 2abe
-0.1662966 0.045284163 0.05991 0.067736514 -0.19883235 0.03429189 -0.053253304 -0.0002926444
-0.03379368 6.931e-42 -4.858e-41 -6.732582e-35 0.08607769 0.23966397 -0.21070822 -0.029942835
-0.28783545 -0.110894464 -0.2512894 0.053689383 0.077291034 0.30596587 0.10572977 -0.21019414
-0.018222408 0.4596455 -0.33954626 0.00012773057 -0.0007290902 -0.00047116852 0.3172508 -0.39134568
-0.018996676 -0.28979677 0.17767477 -0.00810721 0.055715315 -0.5270038 0.16987929 -0.188631
0.057522155 0.07815546 0.019669354 0.19038498 -0.14111032 -0.011418942 -0.06422694 0.028516548
0.09971022 -0.010848851 -0.024211328 0.075803325 0.07241881 -0.07291728 4.484e-42 1.135e-41
-4.89488e-40 -0.25219807 -0.10058075 -0.02394242 0.010587726 0.071095884 0.15357557 0.051758908
0.18577573 0.3145998 -0.007179681 -0.0018940497 0.05788138 0.08368745 0.07722538 -0.036314107
0.005165171 0.029678248 -0.014193376 -0.033064675 -0.015783615 -0.023149656 0.17063078 -0.27456403
-0.0055569503 -0.036156073 -0.08228706 0.20523876 0.16025929 0.088321105 -0.13403524 -0.0033967071
0.06502194 -0.052244596 -0.11975969 0.054727662 0.016803663 -0.26403636 -0.3048699 0.2103211
-0.37367034 -0.04985457 0.14824978 0.3541917 0.037716184 -0.24610396 0.26771182 0.24003239
-0.24498786 8.675735e-09 -5.2126026e-08 -3.3702104e-08 -0.009198524 0.2717635 -0.1498712 -0.11919966
-0.040727247 0.04663258 -0.015993068 -0.01452151 0.2643363 0.09462799 -0.2771467 -0.081537224
0.3485678 -0.10688237 -0.15611832 -0.061326806 0.20500915 -0.0188811 0.121595524 0.05107959
0.19756529 -0.19622785 0.06743458 0.002290809 0.0004903748 -0.052335933 -0.026231658 0.27376813
0.11450002 0.20445849 -0.3033128 0.044064395 -0.13789949 0.09094573 0.06092522 0.1990396
-0.28734508 -0.032694783 0.1957739 0.08834296 0.20967886 -0.16638297

net.0.bias f4 [50]
00000000: 1b4d e13c 287f 033c 678c 87ba b52d 0000
00000010: d3bb 10bd a9a0 d43b 1803 3f3d 4f10 2dbd
00000020: a020 71bd 7095 c5b7 4abe fd3b 6305 d53c
00000030: 65b1 693d 37a7 d83c 907f d5bc 8260 f63b
00000040: ad04 1dbc a532 8bbc 3c93 0000 9287 d03c
00000050: a178 fbbb 5513 86bc 17b8 daba ffae 15bc
00000060: dba6 7dbb a10c 2db9 e8b6 b03b d83a 6ebb
00000070: 7611 dbbc ec41 06bc b7c1 813c 0402 893d
00000080: 4330 813d 67ea 30bd 2cde 6abd efd4 0cb1
00000090: c15d edbc 233f b83c c9bb 13bc c211 0d3b
000000a0: 7d22 15bd a494 f6bb 29a0 5abc 8343 b63c
000000b0: a206 cbba 49ac 9dbc 73cc b63b 2c98 45bc
000000c0: d7aa 4d3d 13ea 03bd
0.027502587 0.008025922 -0.0010341526 1.6397e-41 -0.035335373 0.0064888787 0.04663381 -0.04225188
-0.058869004 -2.3553817e-05 0.0077436315 0.026003545 0.057053942 0.026446922 -0.026061803 0.007518829
-0.009583634 -0.016991923 5.2818e-41 0.02545527 -0.007674292 -0.01636664 -0.0016686943 -0.009135961
-0.003870419 -0.0001650327 0.005392898 -0.0036350992 -0.026741724 -0.008194428 0.01583944 0.066898376
0.06308033 -0.043192293 -0.057340786 -2.049372e-09 -0.02897537 0.022491043 -0.009016939 0.0021525477
-0.036409844 -0.0075250436 -0.013343849 0.022248989 -0.0015489648 -0.019247191 0.0055785715 -0.012060206
0.050211754 -0.032205652

net.2.weight f4 [50, 50]
00000000: e2db e106 18aa 8397 2a28 0a80 8105 0080
00000010: 9012 2100 c073 0d00 3700 2188 9474 5200
00000020: 9086 5081 8d78 0480 a383 909e 9dbe cb0a
00000030: 7e31 319d 3e95 af0d 5000 1180 0262 8203
00000040: 1534 1680 a7d7 0a00 6dc3 0000 7154 6480
00000050: c65d fd86 0cb0 c993 1b72 0100 ea66 6380
00000060: 6ebb 0080 77b7 0980 fba5 7d98 c2ba 1b8f
00000070: 39ca 1080 6457 0080 48ff 4d01 e7f1 0410
00000080: c9d2 9391 1b01 4400 9474 8e82 dac4 0a00
00000090: 07b6 3000 a4bd 6980 289b b18c 8777 0b8f
000000a0: 348a e70a 8133 7c84 5d65 1a90 abcd 9e80
000000b0: 542b 1900 982c dd9a 30a7 0381 5a5d 048b
000000c0: 6a9a f692 beab 0f80 7da0 0a3c 32d2 4b3d
000000d0: 9411 113c ef27 0000 c6b2 e23c 2e58 473d
000000e0: edcc 8d3c ee5f 203d 9c16 883d fb06 6c39
000000f0: f116 9a3d 0a60 113d e7ec c83d aab9 89bb
00000100: 9a18 cc3c 860e 193c 43f6 8e3c c05e 5e3c
00000110: 0641 0080 372a f83c 6803 90bc 71c9 3abd
00000120: ad33 b0ba 0e2a 983c f995 893b efe9 753b
00000130: 5234 293c 4f28 a9bc 4478 a53c 32d8 e63b
00000140: c807 1e3c 25c1 d53c cb2a 623c 0798 353d
00000150: a9a5 553d 4073 1e32 55cc 1a3d b343 173c
00000160: c794 67bc 82d0 723d 67a3 5b3d 6de0 be3c
00000170: 49ed 3aba 1cf0 ae3c 614a 183c 833c 613d
00000180: 7d98 3e3d 0b2a 12bc a21c 4cbb ca4a 013d
00000190: 3240 88b0 5157 91af 4250 0180 6555 0080
000001a0: 814c 15af e96d f628 cf57 94a8 6430 4fb0
000001b0: e834 002f f2e3 7399 0921 15b0 fd7f 472b
000001c0: dab2 52b0 701a 1db5 2193 69ac af33 e0ae
000001d0: 8588 7daf 242e 30af 1716 0000 b22e d2a8
000001e0: 4f45 b5af a0ce 1a32 233d 2e2d 1f84 d22d
000001f0: 33b1 282d cdda 249b 3134 beaf 77fe c9ae
00000200: 0bc8 b4af 1e43 902d ec37 9b25 2f65 09b0
00000210: 046f 28b0 bed2 74b0 8600 2fb0 9089 ab99
00000220: 28f2 ad2e 9a0b dead 0efd cd2d e1d6 66ae
00000230: 2df2 82b0 8d39 3f30 edf4 55af 8ddb d691
00000240: e715 f98e 68d6 c2b1 faaf 9691 5729 87ae
00000250: a533 84b0 535e 37af 9334 0c3c 45f2 4a3d
00000260: d232 553b f7c6 0080 1324 eb39 cce2 3e3d
00000270: 88ed 683c 6003 8b3b cca3 85bb 0f64 ae39
00000280: 6958 5b3d 300d 41bb bc2e a53d 286b 10bb
00000290: 203d 4b39 6ce4 973c 692e 983b 8d38 88ba
000002a0: b4e8 0b80 7e04 723c a1cd e7bc 59df 92bd
000002b0: 55e6 23bb 26f5 4cbb 738e afb8 3080 4d3b
000002c0: 1071 853d d3c6 9f3c 0d37 80ba 6e19 5cb9
000002d0: 13f8 8439 4446 313d f804 b23c a617 7a3c
000002e0: 3bcb 9cbb 24b9 0f32 856a c0bb cfee 1e3c
000002f0: bcdb b8bc d3f0 203d daa8 343d 71e0 2bbc
00000300: 3382 04bd ab78 643b b2b6 0c3c b475 0cbd
00000310: 2351 5c3c 06ef 11bd 9025 9b3b b353 b037
00000320: 61c8 aaaf c823 25b5 b4db 049c 00de 0080
00000330: 40ba 628e 2d77 20b1 83dc ccad 5f70 07b1
00000340: 6022 1fa3 25ae 28b0 e348 20b6 ee1b b0a9
00000350: 26d0 f635 f8ee f4b0 cb1f 1087 e7bb 8336
00000360: f951 94af ca6f 17ac 79b1 0000 2c0a 17b1
00000370: 341c a1b3 9e7f dbb4 9dd9 87af a0f5 f8b0
00000380: 7f25 d425 73a1 48a6 944f 02b5 4aac 4db5
00000390: ae99 88aa b7b1 0080 ed53 4fa2 fbc6 7cb6
000003a0: 2995 67b3 65f3 3eb0 420f 98a9 3336 ad90
000003b0: 2a30 169e c6ab 35b0 7429 15b1 52b7 9fb4
000003c0: dce7 19b3 81a3 9a2b 3284 ecb3 1135 eda0
000003d0: 431b 75ad dbec c2b4 e8ee a3a0 99b5 56b1
000003e0: e8dc 1eb2 a94e dca7 2e61 c73b 9fc7 b83c
000003f0: bb53 c4bb 385c 0080 26a8 2cbd 30f9 b9bc
8.495868e-35 -8.508614e-25 -9.32763e-40 -1.974e-42 3.03723e-39 1.235385e-39 -4.844943e-34 7.572331e-39
-3.830011e-38 -4.10587e-40 -1.5301037e-20 1.961989e-32 -2.3451342e-21 1.0821136e-30 -1.561316e-39 7.663215e-37
-2.039064e-39 9.95716e-40 7.0106e-41 -9.213841e-39 -9.530581e-35 -5.091313e-27 1.32769e-40 -9.128633e-39
-6.7237e-41 -8.92334e-40 -3.2783282e-24 -7.678058e-30 -1.541912e-39 -3.135e-41 3.783571e-38 2.6218765e-29
-2.3322417e-28 6.24521e-39 -2.0931937e-37 9.88972e-40 4.473403e-39 -9.710757e-39 -2.736455e-31 -6.876249e-30
2.2296477e-32 -2.9646107e-36 -3.0449232e-29 -1.4583788e-38 2.31143e-39 -9.14755e-23 -2.418085e-38 -2.5492505e-32
-1.5562849e-27 -1.439142e-39 0.008461115 0.049761005 0.008854289 1.4325e-41 0.027673136 0.04866808
0.01730963 0.039153986 0.066449374 0.00022509314 0.07523907 0.03549198 0.098108105 -0.004203041
0.024914075 0.009341842 0.017451411 0.013572395 -2.3326e-41 0.030293567 -0.01757975 -0.045602266
-0.0013443135 0.01857474 0.0041987863 0.0037523468 0.010327416 -0.020649103 0.020198949 0.0070448155
0.00964541 0.026093075 0.013804148 0.044334438 0.05215994 9.223015e-09 0.037792522 0.009232449
-0.014134592 0.05928088 0.05362263 0.023300374 -0.0007130695 0.021354727 0.009295077 0.05498935
0.046532143 -0.008921157 -0.0031144996 0.031565465 -9.913548e-10 -2.6437388e-10 -1.20627e-40 -3.0634e-41
-1.3578651e-10 2.7359152e-14 -1.6469382e-14 -7.537493e-10 1.1660328e-10 -1.2608839e-23 -5.425283e-10 7.087662e-13
-7.665172e-10 -5.852553e-07 -3.3192964e-12 -1.01955215e-10 -2.3058717e-10 -1.6023499e-10 7.924e-42 -2.3334934e-14
-3.2972955e-10 9.010961e-09 9.90433e-12 2.393291e-11 9.5890405e-12 -1.363646e-22 -3.4597883e-10 -9.185624e-11
-3.2883948e-10 1.640071e-11 2.6926108e-16 -4.99841e-10 -6.1275807e-10 -8.9066166e-10 -6.3665373e-10 -1.7736547e-23
7.910145e-11 -2.524363e-11 2.341818e-11 -5.2486796e-11 -9.527575e-10 6.956718e-10 -1.9459252e-10 -3.3898555e-28
-6.140433e-30 -5.6705183e-09 -2.377428e-28 -6.146433e-11 -9.618942e-10 -1.6677264e-10 0.008557457 0.049547452
0.0032531512 -7.1375e-41 0.0004484957 0.04660301 0.014216788 0.0042423457 -0.004078364 0.00033262416
0.05355111 -0.0029457323 0.080655545 -0.0022036526 0.0001938236 0.018541537 0.0046442044 -0.001039283
-1.093669e-39 0.014771579 -0.028296294 -0.071715064 -0.0025009115 -0.003127405 -8.3711835e-05 0.0031356923
0.065157056 0.019503986 -0.0009782031 -0.00020990308 0.00025361832 0.0432799 0.021730885 0.015264427
-0.004784969 8.365792e-09 -0.005872073 0.009700491 -0.022565715 0.039292168 0.044106342 -0.010490523
-0.03235073 0.0034861963 0.00858848 -0.034291938 0.013447079 -0.03562834 0.0047347024 2.101981e-05
-3.1065198e-10 -6.151936e-07 -4.3959096e-22 -7.9639e-41 -2.7946327e-30 -2.3350808e-09 -2.3290042e-11 -1.9708961e-09
-8.6266865e-18 -6.136552e-10 -2.3884284e-06 -7.820815e-14 1.8389007e-06 -1.7821256e-09 -1.0842699e-34 3.925979e-06
-2.6979288e-10 -2.1520446e-12 6.3665e-41 -2.1979174e-09 -7.502277e-08 -4.0884782e-07 -2.471098e-10 -1.8114186e-09
3.6801546e-16 -6.9607744e-16 -4.8544575e-07 -7.6619165e-07 -2.426509e-13 -6.3752e-41 -2.8098161e-18 -3.7666748e-06
-5.391954e-08 -6.946748e-10 -6.752803e-14 -6.8319975e-29 -7.950894e-21 -6.609152e-10 -2.1705917e-09 -2.974944e-07
-3.5833963e-08 1.098774e-12 -1.10136526e-07 -4.0184478e-19 -1.3932691e-11 -3.630765e-07 -2.777137e-19 -3.1244325e-09
-9.247039e-09 -6.114755e-15 0.006084583 0.022556124 -0.0059914268 -3.3082e-41 -0.042152546 -0.02270183

net.2.bias f4 [50]
00000000: 4eb2 0600 0e70 35bc 0e59 3d2f 33a8 263c
00000010: c5ae 0380 ab41 32bc f78d 8ebb 4512 78bb
00000020: 00a9 0c3d cacc 23bc 5717 c919 3f72 8516
00000030: cf50 d23c 2e39 8dba 2efc 89bc bcaa 5a3d
00000040: cbd6 2c3b bd90 d532 b5e9 47bc dbfb 8fbb
00000050: 3b77 83bb caa0 92b6 99cd 8e2a ae61 dab9
00000060: 0515 0380 fca5 3632 4256 83bb a283 6a3b
00000070: d3e8 90bc 9e41 05bc b895 2500 616f 0480
00000080: 4a1c b5bc 34eb c6b9 a22a e13b ce3d bb90
00000090: d220 adb5 2543 1232 3a46 06b6 b890 7834
000000a0: 15ea a7bb fb72 08bc ec7c a832 863b 91bb
000000b0: bf0d 17bb cf95 153b 8f6d 5e32 529f a18b
000000c0: 266e 08b2 9f6d bfba
6.14977e-40 -0.011074079 1.7221088e-10 0.010171938 -3.38202e-40 -0.010879914 -0.0043504196 -0.0037852686
0.03434086 -0.009997556 2.079234e-23 2.1559408e-25 0.025673298 -0.0010774487 -0.016843881 0.05338548
0.0026373144 2.4862283e-08 -0.012201716 -0.004394037 -0.004012016 -4.3698574e-06 2.536693e-13 -0.00041652977
-2.83047e-40 1.0631535e-08 -0.0040080855 0.0035784026 -0.017689144 -0.00813332 3.451622e-39 -4.07297e-40
-0.022108216 -0.00037940743 0.0068715373 -7.385372e-29 -1.2899056e-06 8.513585e-09 -2.0008433e-06 2.3149448e-07
-0.0051243403 -0.008328195 1.9614582e-08 -0.0044321446 -0.0023048965 0.0022824889 1.29470115e-08 -6.225466e-32
-7.941287e-09 -0.0014604813

net.4.weight f4 [1, 50]
00000000: 067d 0b29 053c 43be 5262 8331 1555 32be
00000010: 2649 873a 22df 4b3e 04b2 fc3d 7a09 d43d
00000020: 9d20 81be 866f 4f3e 2c99 d42e ece1 0a3a
00000030: f0e9 5fbe bdc6 b8bb a1ba b23e ac5f efbe
00000040: 67b5 fabe d77d 9fbe 07a9 d5bd 0266 e9bd
00000050: 56e0 0fbe 3c7a e33b 14b9 88b6 6057 9bbd
00000060: a37e 40b5 2892 9abe fdf5 acbd 8d86 4fbe
00000070: cb1e bf3e c0cd 8a3e 1d48 8021 d138 8e28
00000080: abae ed3e 0cf0 d03b 65b2 dcbd e12e 963a
00000090: 0705 283c 1605 7f33 4655 2439 adfe 0eb6
000000a0: 4ae0 223e 9a1e f0bd 72fe 96be 22d6 083e
000000b0: ce07 4bbc 2069 f0be aea0 53be da69 802e
000000c0: 0ca0 173b e7ee 2f3d
3.097264e-14 -0.19065864 3.8237795e-09 -0.17415269 0.0010321483 0.19909337 0.12338641 0.1035337
-0.25220194 0.20257387 9.6678526e-11 0.0005297947 -0.21866584 -0.005638926 0.34908012 -0.4675268
-0.48966524 -0.31150696 -0.1043263 -0.113964096 -0.14050421 0.0069420617 -4.074662e-06 -0.07585025
-7.1709854e-07 -0.30189633 -0.08445356 -0.20266171 0.3732818 0.271101 8.692706e-19 1.5789807e-14
0.46422324 0.006376272 -0.107762136 0.0011458063 0.010255105 5.937644e-08 0.00015672026 -2.130789e-06
0.15905872 -0.11724587 -0.29491 0.13362935 -0.0123919975 -0.46955204 -0.20666763 5.839569e-11
0.0023136167 0.042952444
