pretrained_models/reward_models/hartmann6.pt (torch, 15064 bytes, 5 tensors)

net.0.weight f4 [50, 7]
000000 0e 57 b2 bd 76 4b 82 bd 51 0e d5 3d df cb 63 3e
       -0.087080106 -0.06362049 0.10403121 0.2224574
000010 15 7d ea 3e 6e 40 a4 bd fa bc 90 bc 78 6d a7 3d
       0.45798555 -0.080201015 -0.017668236 0.081751764
000020 4c ca bb 3c be 8e 49 bf 87 d3 8e bd ea fd af 3d
       0.022923611 -0.7873343 -0.069739394 0.08593352
000030 9b da 4b bc 5f 31 bd bc af 7d 00 80 5f 4a 01 80
       -0.012442256 -0.023094831 -4.5087e-41 -1.18515e-40
000040 06 46 00 80 d4 79 01 00 49 8d 00 80 57 14 01 80
       -2.512e-41 1.35539e-40 -5.0684e-41 -9.9132e-41
000050 80 be 00 00 86 4e 9a be 7d db 39 3a 19 c2 61 3e
       6.8339e-41 -0.30138034 0.0007089896 0.22046699
000060 f9 28 7f 3d 3c d0 b5 3d b3 41 94 be 20 b3 c9 bc
       0.062294934 0.08877608 -0.28956375 -0.024621546
000070 9f 21 e6 3d c2 ca ed 3d 86 17 07 3c 41 37 c5 3d
       0.112368815 0.116109386 0.0082453545 0.096296795
000080 82 6f bb 3d c1 ed 69 bf 73 d7 c0 bc 27 fa 5d 3d
       0.09152128 -0.9137841 -0.023540234 0.054193642
000090 46 93 ea bc 58 86 67 3d dc 4d 1e 3f a0 5d f7 bd
       -0.028634679 0.056524605 0.61837554 -0.120784044
0000a0 22 ee f2 3c 21 c3 a3 3c 34 34 00 80 76 73 00 80
       0.029654566 0.019990506 -1.8727e-41 -4.142e-41
0000b0 77 60 00 00 2f 30 00 80 f1 94 00 80 f3 01 00 00
       3.4605e-41 -1.7285e-41 -5.343e-41 6.99e-43
0000c0 db 0c 00 80 c6 ef c3 bd b5 7f 46 be 03 3b 53 3d
       -4.612e-42 -0.095672175 -0.19384654 0.05156995
0000d0 c5 78 63 3b b4 ff 28 bf 84 3e 2e 3d 68 3e 87 3c
       0.0034709435 -0.6601517 0.04254009 0.01650925
0000e0 b6 d3 54 3d e3 bc 46 bc 26 5d 6e 3d e6 90 7b 3c
       0.051959716 -0.012129995 0.058194302 0.015354371
0000f0 37 70 83 bc 72 a5 0e 3f 23 eb 05 3d a5 40 6e 3d
       -0.01604472 0.557212 0.032694947 0.05816712
000100 71 67 41 3f 1b ff f4 3c 01 91 3d 3d 5d 73 d6 bc
       0.75548464 0.0299068 0.046280865 -0.026178056
000110 2f 6a f6 3d 41 d2 d4 bb ab a6 00 80 75 b0 01 00
       0.12031972 -0.006494791 -5.9789e-41 1.55136e-40
000120 12 af 01 80 1c 04 02 80 ac 3d 04 80 c4 cc 00 80
       -1.54639e-40 -1.85145e-40 -3.89466e-40 -7.3456e-41
000130 3f fd 00 80 38 5b 08 80 e8 a5 77 00 4d 9e 06 00
       -9.0848e-41 -7.67407e-40 1.098794e-38 6.078e-40
000140 52 da 65 82 37 7e 17 00 2b e2 b9 05 b4 27 01 80
       -1.6886918e-37 2.157494e-39 1.7480397e-35 -1.06078e-40
000150 bb 76 e6 bc b5 39 a4 3d 75 23 e3 3c 5f 5d 49 bf
       -0.028132787 0.08018819 0.027726868 -0.786581
000160 6f 31 89 3d a8 11 2a 3d ce e7 59 bc 53 e1 5b be
       0.06698882 0.041520745 -0.013299895 -0.21472673
000170 37 e4 3e 3d 7d ee 5d be 86 01 81 be aa 4f 23 be
       0.04660436 -0.21673007 -0.25196475 -0.15948358
000180 ea ce fa bd cb 90 b1 3c e7 a9 4b bf 0b 0c 27 bc
       -0.12246497 0.021675488 -0.79556125 -0.010195742
000190 6e 2e 8a bd 45 09 31 bd 18 38 e5 bc 27 f7 da 3d
       -0.06747137 -0.04322173 -0.02798085 0.10691672
0001a0 32 59 12 3d 5c 08 06 bd 1d 45 af 3d 11 a9 8a 3e
       0.035729595 -0.032722816 0.08558104 0.27082112
0001b0 af c8 08 bf c4 28 96 3d d7 3f e6 bc 03 f9 bc bc
       -0.5343122 0.07331994 -0.028106613 -0.023067957
0001c0 e1 e6 19 3e 0e b9 ce bd 40 6e e7 3d 12 ed 0a bf
       0.1502948 -0.1009389 0.113003254 -0.5426799
0001d0 5f c7 64 3d 5b d4 eb bd ba 4d 38 3c ad 3b 02 ba
       0.055854198 -0.11515113 0.011249 -0.0004967999
0001e0 5e 6c 6f 37 2f d1 3f bb ef f8 e8 39 8d 7c 81 b9
       1.4270741e-05 -0.002926897 0.00044435958 -0.00024697595
0001f0 0c c3 31 ba fb 99 ac 39 f8 91 29 bf 98 73 3a bd
       -0.00067810784 0.0003292112 -0.66238356 -0.045520395
000200 aa a2 dc 3d ae 58 54 3d 58 67 c3 3b 46 6d 32 bc
       0.10773213 0.051842384 0.0059632473 -0.010890311
000210 0f 2c ca bc 5b 6c 7c 3e cd 27 3e be 49 67 d0 be
       -0.024679212 0.2465071 -0.1856987 -0.407038
000220 81 3b 9d bc 8c c4 06 3e b4 b7 f1 3b ef 62 d6 bc
       -0.019193413 0.13160914 0.0073766354 -0.026170222
000230 71 01 07 00 00 7a 0a 80 c0 73 08 00 6d ff 0b 80
       6.43366e-40 -9.6212e-40 7.76207e-40 -1.10182e-39
000240 a8 83 03 00 ff b4 08 80 43 34 00 80 a5 7d e3 3d
       3.22736e-40 -7.99613e-40 -1.8748e-41 0.11107949
000250 7b 0a 33 bd b8 94 0d 3f 3f 43 2a bc 3d a9 37 bd
       -0.043711167 0.5530505 -0.010392009 -0.044839133
000260 50 27 68 3c 9b 5e df bc c6 e7 d4 3d ae 79 7c bf
       0.014169529 -0.027266791 0.1039577 -0.9862317
000270 9f c5 52 3d ec ea d0 3d b3 76 62 bc 47 36 db 3d
       0.051457997 0.10201058 -0.013822245 0.10703712
000280 eb 4b 36 bd fb 34 00 80 46 4c 00 00 0b 3c 01 00
       -0.044505995 -1.9006e-41 2.7362e-41 1.13375e-40
000290 24 9b 01 80 dd 5d 02 80 4c 3a 00 00 d2 33 01 00
       -1.4749e-40 -2.17343e-40 2.0913e-41 1.10425e-40
0002a0 ac 6b 00 00 33 33 00 80 5d 4b 00 80 1d 83 00 00
       3.8625e-41 -1.8367e-41 -2.7035e-41 4.7035e-41
0002b0 99 52 00 80 4a 12 00 80 6c be 00 00 9e 6e 00 00
       -2.963e-41 -6.561e-42 6.831e-41 3.9682e-41
0002c0 20 d1 00 80 1c fb 00 80 7e 30 00 00 af 1d 00 80
       -7.502e-41 -9.0081e-41 1.7396e-41 -1.0648e-41
0002d0 79 1d 00 80 bf ba 00 00 28 66 9b 3d 64 78 a5 3b
       -1.0573e-41 6.6992e-41 0.07587844 0.005049752
0002e0 dd 7a 17 3e 01 ca 34 bc 06 e9 39 bf 24 9b ac bd
       0.14792962 -0.01103449 -0.7262119 -0.08428028
0002f0 b6 94 56 bd 65 a5 95 3e 8c 6b 6d 3e c1 5b 76 3e
       -0.052387916 0.2922775 0.23185557 0.24058439
000300 51 ad fb bd 8f fe 40 be 29 19 b4 be 0d 69 25 3d
       -0.12288917 -0.18847106 -0.35175446 0.040383387
000310 d5 04 03 80 78 55 0c 80 50 c6 0a 80 f2 79 05 00
       -2.7724e-40 -1.132686e-39 -9.89496e-40 5.02923e-40
000320 0e 74 09 80 d0 9b 08 80 da 10 08 00 22 a2 5b 3e
       -8.68152e-40 -7.90579e-40 7.40729e-40 0.21448568
000330 06 c0 a1 bb 01 55 32 3e 52 69 3f bd e7 c0 cf 3e
       -0.004936221 0.17415239 -0.0467313 0.4057686
000340 ae dd 2c 3c 47 87 bf 3c 3a af 01 80 2e 2c 00 00
       0.010550899 0.023379935 -1.54695e-40 1.5849e-41
000350 69 88 01 80 d6 1e 00 80 f8 d5 01 80 42 87 00 00
       -1.4077e-40 -1.1062e-41 -1.68593e-40 4.8521e-41
000360 f7 9e 00 00 d3 87 04 00 8e c6 02 00 c2 40 06 00
       5.7026e-41 4.16067e-40 2.54899e-40 5.74244e-40
000370 55 89 02 00 ee d7 03 00 2a 49 13 80 5c 5d 1a 00
       2.32936e-40 3.52967e-40 -1.771121e-39 2.421214e-39
000380 ab 2c ba ba e0 92 8c bb 83 2a d1 38 95 96 58 bc
       -0.0014203986 -0.00428997 9.973815e-05 -0.013219495
000390 a3 51 15 3f e5 04 f8 3c bc d8 0a bb 58 16 d1 86
       0.5832769 0.030275771 -0.0021186313 -7.8649893e-35
0003a0 39 14 23 87 f9 0b 0e 8d b5 6e c0 07 23 1c d8 03
       -1.22687e-34 -4.377154e-31 2.8954017e-34 1.2701799e-36
0003b0 9d b4 76 03 eb 76 2d 80 31 a9 00 80 a7 6d 00 00
       7.2500236e-37 -4.175257e-39 -6.0694e-41 3.9336e-41
0003c0 15 86 00 80 0a 20 00 80 37 01 00 00 0a 74 00 80
       -4.81e-41 -1.1493e-41 4.36e-43 -4.1627e-41
0003d0 9d 0a 00 00 b1 ad de b4 91 1f 2d b4 ad 4c 8d b6
       3.807e-42 -4.14771e-07 -1.6123364e-07 -4.2110537e-06
0003e0 0b 83 bc 34 52 8f ab 34 62 b9 bd 31 43 ed 20 b4
       3.5113075e-07 3.195551e-07 5.5216995e-09 -1.4987477e-07
0003f0 f2 c9 d0 3d 72 33 da 3d 1e d0 56 3d 8a d2 fe 3c
       0.10194768 0.10654344 0.05244457 0.031106252

net.0.bias f4 [50]
000000 21 61 8b be c6 ba a2 3e 20 ce 00 80 4c d3 c5 3d
       -0.2722254 0.31783122 -7.3944e-41 0.09659442
000010 19 28 71 3e 74 4a 99 be d0 aa 00 80 5c 40 c8 3e
       0.23550452 -0.29939616 -6.1276e-41 0.39111602
000020 3e e5 9e be 76 a1 eb be ec de 00 80 72 1f 87 86
       -0.31034273 -0.46021622 -7.997e-41 -5.082756e-35
000030 ba da 85 3e be 9a dc 3e ed 97 c9 3e 38 0d a8 3d
       0.26143438 0.4308681 0.39373723 0.08205646
000040 2d 35 69 3e 40 1b f6 3a 89 8c 7b 3e dc 91 c2 3d
       0.22774191 0.0018776432 0.24565329 0.09500477
000050 34 ab 0a 80 57 bb 93 be 11 d7 8f 3e e8 29 00 80
       -9.79771e-40 -0.28853866 0.2809377 -1.5033e-41
000060 24 ba 00 80 d0 30 00 00 2d b9 79 3e e9 f2 ce bb
       -6.6775e-41 1.751e-41 0.24387045 -0.0063155782
000070 f0 32 03 80 f2 f5 b0 be 6e b3 00 80 88 59 bc 84
       -2.9378e-40 -0.3456264 -6.4367e-41 -4.428081e-36
000080 e4 2e 98 be cc 95 ce 02 3c df 00 80 4f bf f8 35
       -0.29723275 3.0354959e-37 -8.0081e-41 1.8533118e-06
000090 71 88 e3 be fa d0 79 bd 8c cd 92 2b dc 26 10 3e
       -0.44440034 -0.06099031 1.0430975e-12 0.14077324
0000a0 50 2a 84 be 08 34 01 00 b8 f3 bf 3e ef b3 f8 3d
       -0.25813532 1.10501e-40 0.3749063 0.121436946
0000b0 1b 23 00 80 a7 18 00 80 38 81 69 3e 1c 6d a3 be
       -1.2593e-41 -8.844e-42 0.228032 -0.3191918
0000c0 70 db 00 80 71 cb 00 80
       -7.872e-41 -7.2981e-41

net.2.weight f4 [50, 50]
000000 40 59 0a 3e ee 83 3d 3e e0 14 1f 80 01 5d c6 3d
       0.13510609 0.18507358 -2.854389e-39 0.09685708
000010 03 df 5c 3e d2 23 26 3e fa 9f 00 00 a2 34 38 3e
       0.21569447 0.16224602 5.7389e-41 0.17988828
000020 7d 70 16 3e f1 c6 6e 3e 86 c7 00 00 17 e3 07 80
       0.14691348 0.23318078 7.1576e-41 -7.24313e-40
000030 78 2a 37 3e db d4 fc 3d 5d 8a 4a 3e c4 ce 01 3e
       0.17887294 0.123452865 0.19779344 0.12676531
000040 85 33 0a 3e cb fa 3e 3a 69 38 20 3e 92 99 e2 3d
       0.13496216 0.0007285296 0.15646519 0.110644475
000050 43 22 0b 00 0f 2d 20 3e e3 89 72 3e 9d 43 01 80
       1.022481e-39 0.15642188 0.23685412 -1.1609e-40
000060 c9 50 00 80 82 82 00 00 d2 87 2d 3e 51 d1 fd 3d
       -2.898e-41 4.6817e-41 0.16946343 0.123934396
000070 f2 ba 02 00 60 9c 11 3e ce 3c 01 80 65 52 05 80
       2.50734e-40 0.14219809 -1.13648e-40 -4.88735e-40
000080 a0 4e 17 3e 91 9f 8d 04 03 a4 00 80 0c 64 75 35
       0.14776087 3.329548e-36 -5.8836e-41 9.14152e-07
000090 dd 24 3b 3e 01 ff ec 3d f2 a9 01 99 d6 e6 c1 3d
       0.18275781 0.11572076 -6.703464e-24 0.094678566
0000a0 2a b7 09 3e 9e 9a 00 80 9c c1 0f 3e bf 33 02 3e
       0.13448778 -5.5466e-41 0.140387 0.12715052
0000b0 df 4b 01 00 a2 96 00 00 50 e3 12 3e 48 0d 20 3e
       1.19053e-40 5.4037e-41 0.14344525 0.15630066
0000c0 b0 95 00 00 bc bd 00 80 83 da f6 3d c1 0a 29 3e
       5.3698e-41 -6.8064e-41 0.120533966 0.16508009
0000d0 08 e3 00 80 a5 bf b0 3d f0 45 45 3e 5b 20 14 3e
       -8.1443e-41 0.08630303 0.1926496 0.14465468
0000e0 5c 15 00 80 8b 51 24 3e 48 22 06 3e 95 a4 54 3e
       -7.662e-42 0.16046731 0.13099015 0.20765908
0000f0 b8 57 01 80 30 9c 06 00 c2 58 23 3e ff 14 e1 3d
       -1.23303e-40 6.07042e-40 0.15951827 0.10990333
000100 4e ab 34 3e 10 83 e7 3d 50 b2 f6 3d af 83 2b 3a
       0.17643473 0.11304295 0.12045729 0.00065427547
000110 90 03 0f 3e 22 0f ca 3d 23 63 00 80 9e e1 0e 3e
       0.13966203 0.098661676 -3.5564e-41 0.13953254
000120 92 90 58 3e a5 0b 01 80 97 2e 00 80 2b fa 00 80
       0.21148899 -9.6013e-41 -1.6713e-41 -8.9743e-41
000130 cb cf 1a 3e 9a ea e1 3d 28 ae 01 00 ab 10 02 3e
       0.15118329 0.11031075 1.54311e-40 0.12701671
000140 29 59 01 80 27 40 01 80 fe e5 06 3e 1f 7a d4 03
       -1.2382e-40 -1.14849e-40 0.13173673 1.2488278e-36
000150 80 22 00 00 8b 59 5b 35 5c a8 26 3e 41 7d d3 3d
       1.2376e-41 8.171416e-07 0.16275162 0.10326625
000160 90 9f eb 98 70 aa ac 3d 4d a5 f5 3d b7 ea 00 00
       -6.0907193e-24 0.08430946 0.11994419 8.42e-41
000170 70 28 00 3e d8 7a e8 3d dd 61 02 00 48 8b 00 00
       0.12515426 0.113515556 2.18778e-40 4.9965e-41
000180 1e 2c 03 3e 15 c6 0e 3e 42 ab 00 00 8a 14 00 80
       0.12809798 0.1394275 6.1436e-41 -7.368e-42
000190 44 be e6 3d 99 fd 1d 3e 63 34 00 80 f4 1c a5 3d
       0.11266759 0.15428771 -1.8793e-41 0.08062163
0001a0 d5 80 38 3e d5 68 0a 3e 1b 8f 00 80 ce 94 19 3e
       0.18017896 0.13516553 -5.1337e-41 0.1499817
0001b0 c8 ae fa 3d c3 92 46 3e 33 0f 01 00 72 a5 05 80
       0.12240368 0.19391923 9.7288e-41 -5.18528e-40
0001c0 6d a6 18 3e 93 26 d2 3d d4 dd 28 3e b7 59 d8 3d
       0.14907236 0.10261264 0.1649087 0.10563987
0001d0 21 a6 e6 3d 3e ed 20 3a cc b7 05 3e 94 d0 bc 3d
       0.11262155 0.00061388675 0.13058394 0.092194706
0001e0 a0 9c 06 80 58 8d 05 3e 33 84 4a 3e 4a 13 00 80
       -6.072e-40 0.130422 0.19776992 -6.92e-42
0001f0 47 4d 00 80 69 44 00 00 a6 b3 10 3e 2a e8 d2 3d
       -2.7722e-41 2.4541e-41 0.1413103 0.10298188
000200 49 22 02 00 11 4f f3 3d 49 bb 00 00 95 dc 00 80
       1.9597e-40 0.11880315 6.7185e-41 -7.913e-41
000210 2b 19 fc 3d 05 4f ad 03 c6 7f 00 00 45 bd 4d 35
       0.12309488 1.0186168e-36 4.5836e-41 7.6643875e-07
000220 53 a2 1b 3e b9 b4 c5 3d ee e3 17 17 ee 3b a1 3d
       0.1519864 0.09653611 4.907842e-25 0.07872759
000230 85 8f e5 3d 47 27 00 80 db 7b ef 3d ef 62 d9 3d
       0.11209015 -1.409e-41 0.116935454 0.10614573
000240 6c 6e 02 80 68 59 00 80 b8 55 f5 3d 0e 72 05 3e
       -2.23283e-40 -3.2073e-41 0.1197924 0.1303179
000250 21 ae 00 80 04 37 00 00 85 74 ec 3d 86 e9 21 3e
       -6.2466e-41 1.9736e-41 0.11545662 0.15811738
000260 f4 a5 00 80 85 3c a9 3d 61 09 3d 3e ad da 0d 3e
       -5.9533e-41 0.08263496 0.18460609 0.1385295
000270 58 78 00 00 9b 63 1d 3e 34 75 00 3e 06 8f 4b 3e
       4.3171e-41 0.15370028 0.1254471 0.19878778
000280 2d e5 00 00 24 1c 00 00 33 71 1c 3e 2f 71 d7 3d
       8.2213e-41 1.0095e-41 0.15277557 0.10519635
000290 0f 0d 2d 3e 15 b9 dd 3d 83 56 ec 3d 61 d9 24 3a
       0.16899513 0.10826317 0.11539938 0.00062884955
0002a0 a7 03 09 3e d8 82 c1 3d bb dc 00 00 73 db 08 3e
       0.133803 0.094487846 7.9183e-41 0.13364963
0002b0 b8 7f 4f 3e 5e ef 00 00 2d 62 00 00 f9 65 00 80
       0.20263565 8.5869e-41 3.5219e-41 -3.6581e-41
0002c0 76 49 14 3e 5a 39 d8 3d 29 8e 02 00 87 46 f9 3d
       0.14481148 0.10557814 2.34668e-40 0.12171655
0002d0 31 21 00 00 e0 b9 22 00 b4 2f 01 3e 31 66 e9 03
       1.1907e-41 3.189086e-39 0.12615854 1.3717971e-36
0002e0 86 85 00 80 ed 89 53 35 df 89 1f 3e 0d 98 ca 3d
       -4.7899e-41 7.8804334e-07 0.15579937 0.09892283
0002f0 6b f0 75 16 b4 48 a5 3d 72 44 eb 3d 13 16 00 80
       1.9866805e-25 0.08070508 0.11487664 -7.919e-42
000300 44 74 f5 3d 4b bd de 3d 42 5e 00 80 aa 65 00 00
       0.119850665 0.108759485 -3.3813e-41 3.647e-41
000310 e0 5f fb 3d a1 c0 08 3e f9 03 00 80 d6 4f 00 80
       0.12274146 0.13354732 -1.425e-42 -2.864e-41
000320 4f 78 10 25 08 45 43 25 09 50 00 00 37 59 cf 24
       1.2530771e-16 1.6936943e-16 2.8711e-41 8.9923076e-17
000330 e1 02 6c 25 e5 8d 2a 25 59 92 00 00 f9 f8 3d 25
       2.0470712e-16 1.4793225e-16 5.25e-41 1.6477492e-16
000340 74 7f 1a 25 23 ad 72 25 15 47 00 80 eb f4 02 80
       1.3400554e-16 2.1048815e-16 -2.55e-41 -2.71531e-40
000350 17 98 3f 25 49 ca 00 25 a9 fa 54 25 3d 96 05 25
       1.6618139e-16 1.1170767e-16 1.8472996e-16 1.1586814e-16
000360 a9 62 0e 25 ac fa 55 21 3c 63 27 25 81 22 e8 24
       1.2349964e-16 7.249897e-19 1.4518563e-16 1.00672413e-16
000370 97 dd 00 00 4d 47 28 25 4b 1b 7c 25 d3 ab 00 00
       7.9491e-41 1.4595835e-16 2.1866763e-16 6.1639e-41
000380 db a3 00 80 87 34 00 00 88 89 33 25 c3 23 01 25
       -5.878e-41 1.8843e-41 1.5572373e-16 1.1201083e-16
000390 39 8c 02 80 83 cf 17 25 90 6e 00 00 cc a3 00 80
       -2.33973e-40 1.316747e-16 3.9662e-41 -5.8759e-41
0003a0 6a 40 1e 25 a0 26 01 00 55 bd 00 00 71 ef 87 1c
       1.372614e-16 1.05692e-40 6.792e-41 8.995445e-22
0003b0 5a c0 3f 25 c8 f8 f3 24 aa 2c 05 01 11 14 c4 24
       1.663178e-16 1.058059e-16 2.4460287e-38 8.5035444e-17
0003c0 88 20 0e 25 fb d7 00 00 eb d6 16 25 cf 5a 08 25
       1.2327559e-16 7.7479e-41 1.3083243e-16 1.1826887e-16
0003d0 6f 9e 01 00 32 3e 00 00 8d 77 18 25 f4 14 26 25
       1.48671e-40 2.2311e-41 1.3224404e-16 1.4405304e-16
0003e0 76 0c 00 00 55 36 00 00 58 e6 25 3d f7 9e 62 3d
       4.47e-42 1.949e-41 0.040502876 0.055327382
0003f0 c5 52 00 80 b8 05 ed 3c 6b 4f 85 3d 5c 09 46 3d
       -2.9692e-41 0.028933391 0.065092884 0.04834877

net.2.bias f4 [50]
000000 98 c4 13 32 3e 9f a8 31 10 e8 46 32 03 57 2a 32
       8.601226e-09 4.9075473e-09 1.1577882e-08 9.9150865e-09
000010 59 f3 41 19 ce 1a a4 31 5e 82 d2 39 39 47 51 32
       1.002701e-23 4.7760755e-09 0.00040151452 1.2181595e-08
000020 22 af 77 32 5e a8 fb 1f e7 dc 01 00 55 50 7b 32
       1.4417113e-08 1.06581175e-19 1.7108e-40 1.4628388e-08
000030 77 03 67 00 30 2c e3 3a ec 9f d6 32 e4 1a 00 80
       9.460299e-39 0.0017331894 2.4985603e-08 -9.647e-42
000040 a2 24 6e 32 f5 f0 b2 b2 31 fa d0 31 f1 d7 8c 3b
       1.3861753e-08 -2.0831502e-08 6.08204e-09 0.004298203
000050 9a 62 1d 35 ae 51 0f 00 ad 3c eb b0 29 b0 4b 32
       5.863054e-07 1.406834e-39 -1.7115745e-09 1.1856209e-08
000060 06 8f 13 32 1a 64 3f b2 b0 be 00 80 19 43 6a 04
       8.589046e-09 -1.1140424e-08 -6.8406e-41 2.7537378e-36
000070 da ee cc b2 63 a0 00 80 36 e3 8f 32 28 13 cb 2c
       -2.3857343e-08 -5.7536e-41 1.6750715e-08 5.771734e-12
000080 1a 1d 01 33 12 6a b9 32 f0 6b 26 31 54 d6 87 01
       3.006162e-08 2.158507e-08 2.4217535e-09 4.9898714e-38
000090 04 8b 00 80 4a 75 04 80 b8 39 25 80 98 69 8d 32
       -4.987e-41 -4.09417e-40 -3.418619e-39 1.6462579e-08
0000a0 7e 55 00 00 d7 30 1f 32 8d 87 e0 32 b3 ff d9 32
       3.0669e-41 9.266123e-09 2.6138673e-08 2.5378403e-08
0000b0 1b a8 91 3b 23 54 58 b1 5a 18 3c 30 80 9e b9 b1
       0.0044450886 -3.1479963e-09 6.842861e-10 -5.402228e-09
0000c0 6b 92 b7 32 b6 0c a0 3a
       2.1370587e-08 0.0012210819

net.4.weight f4 [1, 50]
000000 0b 83 59 bf 4f ff 41 bf 51 4e 35 bf 77 ce 39 bf
       -0.8496558 -0.75780195 -0.70822626 -0.72580665
000010 c0 65 5f a6 fe 01 82 be 18 0b 42 3a f7 c3 2b bf
       -7.7506564e-16 -0.25392145 0.0007402166 -0.67095894
000020 5f df 51 bf 88 31 72 20 5e 34 01 00 35 56 61 bf
       -0.8198146 2.0514586e-19 1.10621e-40 -0.88022166
000030 55 d5 df 8c 7e 5e 4f 3b ea 9d 72 bf 22 55 39 80
       -3.4486985e-31 0.0031642015 -0.9477221 -5.265163e-39
000040 06 1c 4d bf 32 8c 1d bf bd d2 46 bf ca 6e 00 3c
       -0.80120885 -0.61542046 -0.7766531 0.007838914
000050 df 9d 94 35 f0 e8 72 80 b3 11 80 bd 63 25 58 bf
       1.1072806e-06 -1.0552809e-38 -0.06253376 -0.8443205
000060 b8 79 57 bf dc 45 25 bf 77 b6 09 80 41 b5 ad 91
       -0.84170103 -0.6455972 -8.91976e-40 -2.7406294e-28
000070 8d ef 6e bf 14 2d 00 80 cf 9e 6b bf aa 25 64 ba
       -0.93334275 -1.6171e-41 -0.920392 -0.0008703122
000080 f1 64 4f bf a2 e1 35 bf 1d 14 54 bf fa 99 14 85
       -0.810134 -0.71047413 -0.8284319 -6.9872076e-36
000090 60 09 00 80 2d 86 41 86 ed 20 b5 89 c9 d4 5c bf
       -3.363e-42 -3.6397842e-35 -4.360513e-33 -0.86262184
0000a0 6c 68 07 80 ab e0 61 bf b2 d6 54 33 85 92 4f bf
       -6.80308e-40 -0.8823344 4.955536e-08 -0.81082946
0000b0 e0 79 05 3c 53 d0 69 bf 53 7a 62 bf 31 00 54 bf
       0.008146733 -0.913335 -0.884679 -0.8281279
0000c0 93 d3 43 bf c6 15 13 3b
       -0.7649471 0.0022443398
