pretrained_models/reward_models/levy10.pt (torch, 15860 bytes, 5 tensors)

net.0.weight f4 [50, 11]
-0.044316277 -0.027400978 -0.35581908 -0.1925004 -0.14936714 -0.010584548 0.24432607 0.38935828
0.1096665 0.08873427 -0.003482288 -0.012005886 0.09160038 0.0629519 0.095128104 -0.0114949625
-0.040426854 0.06224792 -0.006075371 -0.08595152 -0.13743283 0.026753468 -0.22996338 -0.07719385
0.15854633 0.25778353 0.083995596 -0.11287303 0.31146315 0.24397825 0.035411805 0.21511395
0.0028963368 0.025295367 0.063314594 0.10632449 0.087248735 -0.09194919 0.024198126 -0.15113837
-0.025570828 -0.01725288 -0.04729148 0.11117809 4.6487e-41 4.85733e-40 2.94323e-40 5.04495e-40
6.08095e-40 -2.0864e-41 -4.48357e-40 5.37811e-40 5.89138e-40 2.19567e-40 -3.8383075e-25 -0.2977418
-0.12450132 0.15568443 0.13064569 -0.047932133 0.16081965 0.18887289 -0.03920146 0.068570964
-0.3595865 -0.0001301745 -4.2066e-41 1.216272e-39 -2.18042e-40 5.99292e-40 4.232e-42 -1.674864e-39
-1.3913e-39 6.98291e-40 -3.26678e-40 1.8685e-40 -1.3724655e-36 0.039185446 0.02319985 -0.115060166
-0.12903498 0.06573987 -0.07586697 0.11318088 -0.038055524 0.03622796 -0.0025691893 0.08503791
-0.0061141048 -0.140626 -0.029811075 0.18667844 -0.12162672 0.053628635 0.05380144 -0.06570072
-0.04980712 -0.06825187 0.15644862 -1.6177116e-29 6.6314143e-29 5.2516667e-29 1.428577e-25 2.8002206e-29
2.4255065e-28 1.06478144e-29 -1.1406391e-28 2.7234395e-29 3.1950258e-28 -2.97134e-26 7.08326e-40 3.2769084e-38
2.26915e-40 -6.160118e-34 1.8952e-40 5.3649e-41 -1.162786e-39 1.808535e-39 2.658762e-39 6.54596e-40
-4.8398757e-33 -0.08215354 -0.14187972 0.057270765 -0.07808389 0.2744237 -0.029520616 -0.033496834
-0.1125328 -0.31855428 0.1521258 0.0023830875 0.14490737 0.030493384 0.3356201 -0.22340451
-0.24473037 -0.07578503 -0.019026367 -0.32894206 0.09733557 0.18164738 -0.0006848336 0.08019377
0.124784544 0.09953376 -0.15247199 -0.30639732 0.061275672 0.04590056 -0.029138127 -0.29952645
0.06471747 -0.00275694 -0.2481288 0.23069242 -0.020908142 -0.1601428 0.0475075 0.110103644
-0.24734086 0.033776723 0.1055066 -0.25152463 -0.005431224 -0.0110341795 -0.18601853 -0.17446089
0.07553678 -0.4120263 0.12410156 -0.26744768 0.10999369 -0.18378673 -0.07502508 -0.004369991
-8.29089e-15 -9.815151e-13 -6.2832606e-14 2.4467017e-13 2.4298487e-14 5.5410624e-12 1.5221404e-13 1.9986259e-13
6.5837474e-11 1.1272851e-12 -0.00019327342 -0.024014583 -0.08960693 -0.0482116 0.0345632 0.029378997
0.033926614 0.07073145 -0.0012014235 -0.00432376 0.02605635 0.08062474 -3.587e-42 -3.872e-42
2.288e-41 -2.1863e-41 -7.6194e-41 8.787e-41 3.0424e-41 3.8484e-41 -4.5176e-41 2.9268e-41
-1.5998858e-19 0.0037817166 0.0066918335 -0.0022643693 0.00032449578 -0.0005492022 -0.0009956516 -0.0021398803
0.0067901057 0.0044474904 -0.0023002764 -0.005207193 2.12472e-40 7.2663e-41 5.1948e-41 -2.56241e-40
-4.13306e-40 4.68519e-40 -4.7817e-41 5.36847e-40 -5.50925e-40 6.1296e-41 -5.04546e-40 -0.038171407
-0.11526332 -0.014947037 0.11205089 -0.13301173 0.00085646566 -0.05202683 -0.015808579 0.045363624
0.02320834 0.1733319 -0.0018544086 0.0009492096 -0.0022416287 0.0028292586 0.0010140988 -0.00022828765
-0.0012944494 -0.000919054 0.00040390104 -0.00013995174 -0.009810187 -3.00925e-40 4.67651e-39 3.2611e-41
00000000: fc84 35bd 0478 e0bc eb2d b6be d31e 45be
00000010: b3f3 18be d06a 2dbc 9d30 7a3e f859 c73e
00000020: d498 e03d 50ba b53d 1937 64bb 56b4 44bc
00000030: fb98 bb3d edec 803d 86d2 c23d 5e55 3cbc
00000040: a196 25bd adf7 7e3d e813 c7bb 5a07 b0bd
00000050: 31bb 0cbe 172a db3c 857b 6bbe cf17 9ebd
00000060: f859 223e 34fc 833e e205 ac3d fa29 e7bd
00000070: 1978 9f3e 6fd5 793e f80b 113d d546 5c3e
00000080: 78d0 3d3b 3b38 cf3c 15ab 813d a7c0 d93d
00000090: 77af b23d db4f bcbd 263b c63c 04c4 1abe
000000a0: ea79 d1bc e955 8dbc b6b4 41bd 57b1 e33d
000000b0: 9681 0000 074a 0500 7434 0300 547e 0500
000000c0: 1f9f 0600 293a 0080 d6e1 0480 33db 0500
000000d0: 476a 0600 1064 0200 6994 ed96 9d71 98be
000000e0: 8cfa febd bd6b 1f3e fcc7 053e 7c54 44bd
000000f0: e8ad 243e e567 413e b691 20bd ef6e 8c3d
00000100: b91b b8be 747f 08b9 4375 0080 793e 0d00
00000110: d05f 0280 9586 0600 cc0b 0000 d73c 1280
00000120: 6126 0f80 8d9a 0700 a58e 0380 dd08 0200
00000130: 4e83 e983 eb80 203d 9d0d be3c aaa4 ebbd
00000140: bf21 04be a0a2 863d 2460 9bbd 61cb e73d
00000150: 1ce0 1bbd c563 143d d85f 28bb 5b28 ae3d
00000160: d458 c8bb 4300 10be 5b36 f4bc a228 3f3e
00000170: 6e17 f9bd b3a9 5b3d e65e 5c3d 198e 86bd
00000180: 8d02 4cbd a3c7 8bbd 1134 203e 320e a48f
00000190: 5720 a810 4425 8510 6ad9 3016 f1fc 0d10
000001a0: 18bc 9911 9df6 570f db97 1091 4418 0a10
000001b0: 4282 ca11 3622 1395 86b6 0700 7069 3201
000001c0: 8c78 0200 7db4 4c88 4e10 0200 8d95 0000
000001d0: 60a9 0c80 76b1 1300 8cf3 1c00 bf20 0700
000001e0: 630a c989 1d40 a8bd eb48 11be c094 6a3d
000001f0: 72ea 9fbd 4381 8c3e 38d5 f1bc fa33 09bd
00000200: 9977 e6bd 8c19 a3be dec6 1b3e 932d 1c3b
00000210: 9962 143e 43cd f93c 66d6 ab3e 27c4 64be
00000220: 999a 7abe 2f35 9bbd 2fdd 9bbc 186b a8be
00000230: df57 c73d c501 3a3e 6886 33ba a23c a43d
00000240: 0a8f ff3d 5bd8 cb3d 9e21 1cbe 1ce0 9cbe
00000250: 33fc 7a3d 3a02 3c3d 15b3 eebc 885b 99be
00000260: 988a 843d c7ad 34bb 7a15 7ebe a23a 6c3e
00000270: 8d47 abbc 79fc 23be 3997 423d 057e e13d
00000280: ec46 7dbe 7659 0a3d d813 d83d d6c7 80be
00000290: 69f8 b1bb b4c8 34bc a47b 3ebe e0a5 32be
000002a0: 07b3 9a3d 1cf5 d2be f528 fe3d e7ee 88be
000002b0: 5f44 e13d 9732 3cbe c0a6 99bd 2432 8fbb
000002c0: fb5a 15a8 cf22 8aab 887c 8da9 b0bc 892a
000002d0: 7fdc da28 74f5 c22c b660 2b2a 7806 612a
000002e0: 34c7 902e baa6 9e2b 70a9 4ab9 3bba c4bc
000002f0: d783 b7bd 8779 45bd 2492 0d3d 39ac f03c
00000300: a2f6 0a3d a7db 903d 1579 9dba 54ae 8dbb
00000310: 2074 d53c 951e a53d 000a 0080 cb0a 0080
00000320: c83f 0000 f23c 0080 66d4 0080 f2f4 0000
00000330: cf54 0000 476b 0000 ef7d 0080 9651 0000
00000340: 95e1 3ca0 add6 773b 2b47 db3b d065 14bb
00000350: 1621 aa39 56f8 0fba 8680 82ba 3c3d 0cbb
00000360: 897f de3b 41bc 913b 3cc0 16bb 1aa1 aabb
00000370: 4950 0200 8eca 0000 cf90 0000 4cca 0280
00000380: 2180 0480 0a1a 0500 4b85 0080 83d8 0500
00000390: c1ff 0580 deaa 0000 787e 0580 9f59 1cbd
000003a0: 2d0f ecbd 6be4 74bc f07a e53d 3a34 08be
000003b0: 7084 603a 161a 55bd fe80 81bc 35cf 393d
000003c0: 6b1f be3c eb7d 313e a10f f3ba 61d4 783a
000003d0: 4ae8 12bb 156b 393b 82eb 843a 8060 6fb9
000003e0: 84aa a9ba abec 70ba aec2 d339 02c0 12b9
000003f0: e8ba 20bc db46 0380 35ec 3200 e85a 0000

net.0.bias f4 [50]
-0.014182742 -0.007113969 -0.024232412 -0.0021432333 5.7884e-40 -0.005129945 -1.4551704e-37 0.005608768
-0.006341132 -1.8803653e-30 -5.74531e-38 0.05118913 0.037873775 -0.011989072 -0.04940322 -0.053742632
-2.9028e-41 -0.004377597 1.3221e-41 1.3509024e-08 -6.81852e-40 -0.010340426 -7.9699e-41 -6.54e-42
0.0038595388 -0.0019034756 1.4556e-40 0.0023118504 0.0037453466 0.040586587 -1.67291e-40 0.00058736955
-4.956309e-39 0.005204393 -0.04005375 3.4437551e-18 -0.029673751 -0.010311143 -0.046829775 0.012422744
2.1786e-41 0.031382706 0.008878667 0.015264443 -0.006499237 0.0012524024 7.9601e-41 0.0070033777
0.0023031826 0.07285354
00000000: bb5e 68bc 4c1c e9bb 0d83 c6bc 7d75 0cbb
00000010: 924d 0600 1919 a8bb 4a11 4682 c2c9 b73b
00000020: 45c9 cfbb a98d 188e f866 9c81 b1ab 513d
00000030: 8821 1b3d d06d 44bc 085b 4abd 3c21 5cbd
00000040: eb50 0080 f271 8fbb db24 0000 5115 6832
00000050: ba6c 0780 e46a 29bc 2bde 0080 3b12 0080
00000060: 51f0 7c3b 0b7e f9ba c395 0100 6a82 173b
00000070: 7d74 753b 1f3e 263d 57d2 0180 b4f9 193a
00000080: 2cf8 3580 9d89 aa3b 670f 24bd b21a 7e22
00000090: 5e16 f3bc 11f0 28bc 94d0 3fbd c488 4b3c
000000a0: bb3c 0000 278b 003d d477 113c b717 7a3c
000000b0: 8df7 d4bb a727 a43a e5dd 0000 977c e53b
000000c0: fef0 163b 3d34 953d

net.2.weight f4 [50, 50]
0.1373059 -0.0046619033 0.10835555 0.04066686 -3.43852e-40 0.12922126 -8.08212e-40 0.029785505
0.023391332 -5.308057e-28 -1.350644e-39 0.10259473 0.10961608 0.11228353 0.12719116 0.11885691
6.734266e-31 -0.018476786 1.046e-41 4.3991844e-05 2.5281e-40 0.011400109 8.5448e-09 -2.6849e-41
0.10979027 0.08430487 -2.4269928e-14 0.0696421 0.01897571 0.13475172 1.0276e-41 0.13424847
7.12808e-40 -0.0052492465 0.12765492 4.367907e-10 0.096595995 0.108018674 0.14653581 0.057486176
-6.9621e-41 0.08910467 0.013051442 0.033581447 -0.028625075 0.05967805 5.6873e-41 0.06554342
-0.008648047 0.15896453 -0.041217852 0.064132236 0.20813227 -0.05122193 3.6837e-41 0.09813397
1.271649e-39 -0.096119374 -0.02808031 -2.8741288e-28 2.59642e-40 0.19906233 0.05566449 0.08187681
0.1179113 0.11842469 -3.0195298e-14 -0.01796607 2.4154e-41 -0.00037007345 -7.01588e-40 -0.027604535
-0.0002743583 3.984e-42 0.11546982 -0.017167186 -9.892303e-07 -0.019374222 0.055255543 0.122552745
4.39627e-40 -0.0016161159 8.20202e-40 -0.05199723 0.11696568 5.170449e-08 0.11997874 -0.0030526998
0.05984619 -0.0026394585 -5.7481e-41 -0.012033544 -0.119132824 0.05810381 0.119324826 -0.10034043
-7.504169e-26 -0.0036788348 0.14890282 0.06315025 2.952e-40 -2.6669e-40 8.0873e-40 -4.511e-40
1.95935e-40 1.0949e-40 3.28334e-40 -1.250973e-39 4.84426e-40 1.269188e-39 -1.98794e-40 -3.96057e-40
-4.203e-41 2.96481e-40 -2.50178e-40 -8.65568e-40 8.5326e-41 -3.73326e-40 -7.3752e-41 -1.7764617e-38
1.5686e-41 -1.121994e-39 5.1194e-41 3.4601e-41 2.75026e-40 -1.06161e-40 5.118e-42 5.73589e-40
-1.443075e-39 1.5159e-40 5.7658e-41 -8.17918e-40 -7.0058e-41 6.08051e-40 7.70931e-40 2.6081e-40
-2.04e-41 5.4026e-41 5.00453e-40 -5.39271e-40 -7.4703e-41 1.27267e-40 -4.57685e-40 5.97773e-40
-6.81523e-40 -9.432519e-30 1.4132e-41 -6.73704e-40 -1.91584e-40 4.5172e-41 0.06836109 -0.0059414636
0.052228704 0.018063318 1.37294e-40 0.07256038 4.31157e-40 0.00015790391 0.0060264184 -2.014711e-28
-6.20355e-40 0.052590232 0.037679285 0.059194516 0.06627907 0.07135759 4.2766e-41 -0.0023779667
-4.8582e-41 3.0551135e-07 -1.14119e-40 0.009778707 3.0159706e-14 -4.8322e-41 0.058713008 0.03742022
-1.9958816e-27 0.041917995 0.0054933405 0.06515992 -2.363e-42 0.07294532 -4.15503e-40 0.0023223727
0.062067665 3.044648e-14 0.045220867 0.062257785 0.075890966 -0.0030846654 -7.1874e-41 0.067213476
0.01025784 0.046413857 0.010166816 0.01633795 3.2555e-41 0.008466671 0.012796883 0.08210307
-2.33641e-40 -1.45407e-40 -9.2566e-41 -7.703403e-17 -1.4447e-41 -3.51193e-40 -4.0472e-41 -8.980946e-20
-1.8300923e-12 6.74609e-39 5.2033e-41 2.06927e-40 -1.9966695e-26 1.38157e-40 -4.32596e-40 1.167056e-34
1.6142e-41 -1.4700481e-23 6.1129e-41 -2.1552e-40 3.705e-42 -5.6738524e-12 1.63932e-40 5.385476e-39
-1.23908e-40 -1.05394e-40 -2.532568e-39 1.44924e-40 -3.4586364e-10 -1.433056e-39 -1.35892e-40 -7.791867e-34
-1.6762e-41 -2.7446553e-15 -1.05135e-40 1.46053e-40 -1.285533e-19 8.6334004e-38 1.25423e-40 -1.4293061e-15
4.6052e-41 -1.9229956e-31 -1.9222541e-23 -5.5257784e-26 -6.6963183e-13 -5.322164e-09 -6.4821e-41 -2.5207476e-17
-1.4905871e-21 -1.3904461e-32 -1.519956e-08 4.1026333e-09 -4.0167927e-09 -1.5008054e-07 2.8842e-41 -5.2551603e-09
00000000: eb99 0c3e e1c2 98bb 84e9 dd3d 4b92 263d
00000010: 85be 0380 9452 043e f7cc 0880 bb00 f43c
00000020: 2e9f bf3c 1338 2892 0cb5 0e80 301d d23d
00000030: 657e e03d e8f4 e53d 663e 023e 406b f33d
00000040: 188a 5a0d a15c 97bc 291d 0000 e283 3838
00000050: bbc0 0200 86c7 3a3c 6ecc 1232 d84a 0080
00000060: b9d9 e03d 08a8 ac3d a59a daa8 84a0 8e3d
00000070: f372 9b3c 5bfc 093e a51c 0000 6e78 093e
00000080: 05c3 0700 df01 acbb f9b7 023e d320 f02f
00000090: 1fd4 c53d e538 dd3d 7c0d 163e a076 6b3d
000000a0: 13c2 0080 827c b63d b7d5 553c b38c 093d
000000b0: 227f eabc f970 743d 8a9e 0000 a13b 863d
000000c0: 8ab0 0dbc 99c7 223e 0dd4 28bd c357 833d
000000d0: a020 553e 16ce 51bd b066 0000 76fa c83d
000000e0: d7d8 0d00 3cda c4bd ae08 e6bc 682b b691
000000f0: c7d3 0200 ffd6 4b3e 7300 643d 07af a73d
00000100: 7b7b f13d a588 f23d cffc 07a9 942d 93bc
00000110: 5543 0000 6b06 c2b9 bea3 0780 e822 e2bc
00000120: bfd7 8fb9 1b0b 0000 717b ec3d 33a2 8cbc
00000130: b2c5 84b5 b0b6 9ebc a353 623d effc fa3d
00000140: 80c9 0400 dad3 d3ba 64ee 0800 0cfb 54bd
00000150: b48b ef3d b011 5e33 6ab7 f53d ce0f 48bb
00000160: 4721 753d c4fa 2cbb 3ca0 0080 5728 45bc
00000170: e9fb f3bd 43fe 6d3d 9360 f43d 497f cdbd
00000180: 52cb b995 9b18 71bb fb79 183e eb54 813d
00000190: e636 0300 6ce7 0280 69ce 0800 7ce9 0480
000001a0: 3022 0200 3731 0100 4393 0300 349f 0d80
000001b0: 6246 0500 fbd1 0d00 282a 0280 0c50 0480
000001c0: 2a75 0080 783a 0300 65b9 0280 da6c 0980
000001d0: dbed 0000 ae10 0480 97cd 0080 8670 c180
000001e0: ba2b 0000 aa37 0c80 b58e 0000 7460 0000
000001f0: a9fe 0200 ef27 0180 440e 0000 ef3e 0600
00000200: b5b6 0f80 92a6 0100 baa0 0000 06e8 0880
00000210: 4bc3 0080 009f 0600 0b65 0800 08d7 0200
00000220: de38 0080 9a96 0000 0f73 0500 45df 0580
00000230: 3ed0 0080 c562 0100 d7fb 0480 5982 0600
00000240: cf6b 0780 7050 3f8f 6527 0000 0356 0780
00000250: 0f16 0280 ec7d 0000 e600 8c3d 9cb0 c2bb
00000260: c4ed 553d 86f9 933c b87e 0100 899a 943d
00000270: e4b1 0400 0293 2539 4379 c53b 1c65 7f91
00000280: 4cc1 0680 db68 573d 9855 1a3d f375 723d
00000290: 52bd 873d ee23 923d 3777 0000 a9d7 1bbb
000002a0: 6d87 0080 2905 a434 1e3e 0180 df36 203c
000002b0: c6d3 0729 b486 0080 0d7d 703d f245 193d
000002c0: 4a21 1e93 34b2 2b3d 7b01 b43b 9072 853d
000002d0: 9606 0080 5b64 953d 4186 0480 f332 183b
000002e0: aa3a 7e3d 671e 0929 8439 393d 0502 7f3d
000002f0: b96c 9b3d 1928 4abb 5bc8 0080 38a7 893d
00000300: 8010 283c 751c 3e3d b892 263c 2ad7 853c
00000310: c05a 0000 cbb7 0a3c 04aa 513c a825 a83d
00000320: 4c8b 0280 5695 0180 0902 0180 dda0 b1a4
00000330: 4628 0080 fcd2 0380 d270 0080 7d0e d49f
00000340: 03c8 00ac 5b75 4900 0c91 0000 d440 0200
00000350: 96bd c594 2081 0100 e7b5 0480 dc20 1b07
00000360: ff2c 0000 a12c 8e99 67aa 0000 c858 0280
00000370: 540a 0000 85a1 c7ac fac8 0100 84a4 3a00
00000380: 6859 0180 cc25 0180 c593 1b80 fd93 0100
00000390: fb23 beaf c79a 0f80 d07a 0180 f076 8188
000003a0: ba2e 0080 f4c5 45a7 1325 0180 2397 0100
000003b0: dac4 17a0 0506 eb01 a15d 0100 16fc cda6
000003c0: 6080 0000 7d9e 798c b5e8 b999 c8cf 8895
000003d0: 0f7c 3cab 40de b6b1 b2b4 0080 787f e8a3
000003e0: 4c40 e19c 6664 908a 3090 82b2 25f7 8c31
000003f0: 1504 8ab1 d325 21b4 6650 0000 e190 b4b1

net.2.bias f4 [50]
-5.000272e-08 0.0019939474 -2.54826e-40 -1.7072601e-08 1.85043e-40 1.59997e-40 -6.8556e-41 8.908e-42
-2.6074058e-08 0.0047003278 -1.28966e-40 -6.8492975e-14 -0.020652236 -8.0311327e-13 -6.539783e-14 0.004886839
-7.2004e-41 0.0059192283 -2.4610982e-08 0.007023706 7.545e-41 0.0023550177 2.123693e-39 0.003756538
0.016190432 0.019918948 0.00275027 -0.0011619736 3.556e-41 -5.6910995e-27 -9.6186135e-09 -3.39152e-40
-1.3780542e-08 -1.36551e-40 1.4806e-40 0.0009961127 -3.096353e-05 -3.491241e-08 -2.4635538e-08 -3.9745057e-08
5.94843e-40 0.0037532125 0.0019985738 6.607e-40 -2.4941839e-08 -9.741238e-09 -0.009020872 -0.029221121
-0.014201226 0.004159653
00000000: 92c2 56b3 e3ac 023b 5ac6 0280 0ca7 92b2
00000010: d303 0200 02be 0100 1bbf 0080 d518 0000
00000020: 76f9 dfb2 3505 9a3b 8167 0180 833b 9aa9
00000030: e12e a9bc 690e 62ab 4843 93a9 c721 a03b
00000040: b8c8 0080 16f6 c13b 1f68 d3b2 1e27 e63b
00000050: 53d2 0000 a456 1a3b fe1f 1700 4030 763b
00000060: cca1 843c 102d a33c e03d 343b 5d4d 98ba
00000070: 2063 0000 9b72 e193 1c3f 25b2 6bb1 0380
00000080: 77bf 6cb2 a67c 0180 bb9c 0100 ff8f 823a
00000090: d6de 01b8 9af2 15b3 1f9e d3b2 27b4 2ab3
000000a0: 2e7a 0600 75f8 753b 81fa 023b c331 0700
000000b0: af3f d6b2 6b5a 27b2 48cc 13bc 2261 efbc
000000c0: 42ac 68bc b34d 883b

net.4.weight f4 [1, 50]
-0.4663009 -0.44086206 3.6778797e-21 -0.24794972 8.966521e-07 0.0007194499 -1.9788665e-15 8.869911e-17
-0.37294987 0.29108256 -1.4307867e-21 -1.0537011e-06 -0.50193125 -3.386919e-08 0.0009079002 -0.45464
8.8183584e-14 0.41720167 -0.3628149 0.47272715 -3.0554302e-15 0.2138231 -3.7617168e-24 0.31097504
-0.46690428 -0.4531998 0.2377901 -0.34271267 5.8137e-41 0.009095251 -0.32100186 1.0395459e-11
-0.4154749 1.1784389e-15 3.3974192e-16 0.2819412 0.18596953 -0.64921194 -0.36881307 -0.43689263
5.7718105e-26 0.27737644 0.35438964 -7.28288e-17 -0.742473 -0.2660926 -0.289302 -0.4345447
-0.5418771 0.32888305
00000000: febe eebe acb8 e1be 45f2 8a1d 88e6 7dbe
00000010: 77b1 7035 7799 3c3a a597 0ea7 b786 cc24
00000020: 49f3 bebe c608 953e e136 d89c e56c 8db5
00000030: 917e 00bf 9177 11b3 2700 6e3a 93c6 e8be
00000040: 6092 c629 759b d53e e0c2 b9be 4b09 f23e
00000050: bd2a 5ca7 71f4 5a3e 3d86 9198 1f38 9f3e
00000060: 140e efbe ce09 e8be 3f7f 733e 0978 afbe
00000070: 10a2 0000 3f04 153c 5b5a a4be fce0 362d
00000080: 20b9 d4be b9d4 a926 0fd9 c325 995a 903e
00000090: cc6e 3e3e c132 26bf 11d5 bcbe 64b0 dfbe
000000a0: 32e7 8e15 4904 8e3e 8f72 b53e 89ee a7a4
000000b0: b612 3ebf 4a3d 88be 641f 94be a57c debe
000000c0: 75b8 0abf 5c63 a83e
