pretrained_models/reward_models/rastrigin10.pt (torch, 15920 bytes, 5 tensors)

net.0.weight f4 [50, 11]
00000000: 4a9b 63bd a50b a73d 3f05 93be 4821 95be
00000010: a44a 54bd e8f9 e83d 6f4a c23e 97dc 393e
00000020: 82ca 913e 3f85 2a3c 9ae7 df39 0c12 6d3a
00000030: bdc0 603a 09e0 6b39 63be 7f3a ca13 b939
00000040: f42b e738 d04c e939 34f6 03b9 6413 beb8
00000050: bd74 98b9 c8ac 99bb f7cf 21bc 269f 4fbc
00000060: 82a0 d13d e594 8b3d 3202 b2bd 0f4d 5a3d
00000070: dd38 13be d2ce 073f 397a 423d 821f 353d
00000080: 4dee 133b 1f32 8cba c199 23bc 483b f9bb
00000090: 9783 94ba 4ab5 31bc db0b b63b d0b6 a7bb
000000a0: d89a 7e3b 318e c1bb 2621 7dbb 31e9 b33d
000000b0: ea48 1fb8 b1ad 2eb9 0f17 6bb9 d796 7db8
000000c0: ecdf 8439 07ce 5c39 3da6 4238 6477 cc38
000000d0: d1c5 97b7 a929 a9b8 44be c63b d0b6 74bd
000000e0: 77bd b23d d0b9 ac3e b50a 2b3e a7a3 50be
000000f0: cba7 1c3e ada7 6e3e 110e 1ebd e0ba 503d
00000100: 3d38 a9be 5494 45bb 1f38 8ab8 265a 4fb9
00000110: 72a9 30b9 8ef3 d1b8 391f 6239 fa03 8539
00000120: 005b 5538 cf31 0039 6465 c3b6 f958 98b8
00000130: cfcc e83b ff48 be3d de5b 373e 17ce b5bb
00000140: fa18 903b 6ea3 263e f4d6 0fbe 2659 c13d
00000150: b3e4 0b3d e787 1a3e 486a 6ebc df7c a63c
00000160: a075 cd3c aa8f aabd 32c4 83bd bd49 07bc
00000170: 465a 07be 15d5 b83d 7def 7bbc c80f 00bc
00000180: 2333 7dbd 169b adbc e2ba 4d3d d862 0000
00000190: 81ef 0080 6134 0000 2756 0000 d67a 0080
000001a0: ac75 0000 4dd0 0000 5345 0080 d81a 0000
000001b0: 0054 0000 f3c1 2794 3854 bbaf 5192 f4ac
000001c0: 2244 52b0 4f68 832e c0d9 03b2 97e0 9530
000001d0: 02b7 1833 1d15 1bb2 7d07 1dad 5e0c 82a8
000001e0: 1454 80ba 27c9 0000 39b6 0080 7f25 0080
000001f0: c225 0080 b6da 0000 868b 0000 37b9 0000
00000200: ef68 0080 2f53 0000 d131 0080 c3fa 42aa
00000210: b5f9 5b3e 10fc cfbd ec72 ab3e 424a 24be
00000220: 252c 28be 9747 21be d02a 693d 0eb1 23be
00000230: 0b57 113e 649b d13e 320a 02bb f3a4 1a00
00000240: 6363 0280 ea38 0300 2707 0480 8fd1 9304
00000250: 3f62 0700 15d7 0800 4069 0280 fe33 0400
00000260: 5a15 0480 7abc aa8d 131b 823c 5953 e6bd
00000270: 4b80 da3d f8f7 1bbe 27af 1b3d 7eb2 fe3e
00000280: 2ce4 93be 00f7 31be d4a6 103e 2743 a13c
00000290: fd35 7738 63c4 46bd e3d5 df3d b926 f2bc
000002a0: 72aa 3dbc a1c0 f6bd 4aaf 563e 36a6 1e3e
000002b0: 4263 e53c b2de 0fbf 97fb 4c3e 0196 f33a
000002c0: 5024 0300 4947 0180 0841 0180 f8cf 0180
000002d0: bd44 0200 a1b3 0100 11ab 0180 4a44 0100
000002e0: 53fd 0080 60ef 0100 502d 96b4 28fa 25bc
000002f0: fe1a 433b b128 123e 57d2 34bc ffcd 3b3e
00000300: e316 ffbb e8af 9c3d 6db8 ce3d b5c4 513d
00000310: 7f41 353d e6d2 7a3c 681d 0000 0c08 0000
00000320: 874d 0000 6d15 0000 bb87 0000 ce30 0100
00000330: eba4 0080 1e45 0000 b817 0000 cf86 0000
00000340: 417a 4db0 3df8 bfb7 2ec6 87b8 f42d 86b8
00000350: 7ad2 edb7 10c7 8838 1b60 4338 5c49 6737
00000360: ad5b cf37 cfb7 a8b6 34ca 41b7 beac d23a
00000370: b88d e1b6 4e21 17b7 ba42 c1b5 9d2f 6b36
00000380: c977 bd37 d970 1a38 3ef4 84b7 07fa de35
00000390: 69c9 9c36 6d5e 14b4 1b9c 7cb7 b8a0 02bd
000003a0: d78d 8abd a482 7cbd 6e08 76bd 3a90 e9bd
000003b0: 8b6d 37bc 45a6 82bc 49a8 09bc c2d6 d5bb
000003c0: ef08 23bc f9ad 2c3d 7b86 0280 bf78 0000
000003d0: c921 0200 570d 0800 e385 0280 9b2c 0000
000003e0: ecc6 0080 6fc9 0080 15e6 1a11 9223 3c0f
000003f0: 4723 13bb 2033 0ab7 347c b9b7 252c aab7
-0.055568017 0.08156518 -0.2871494 -0.29126954 -0.051828995 0.11375791 0.37947413 0.18150555
0.28474814 0.010407745 0.0004270643 0.0009043522 0.0008573642 0.00022494806 0.0009755848 0.00035300694
0.00011023125 0.00044498453 -0.00012584851 -9.063518e-05 -0.00029078676 -0.0046897866 -0.009876243 -0.012672221
0.102356926 0.06815509 -0.08691825 0.053296145 -0.1437716 0.5304996 0.04747984 0.0442195
0.0022572458 -0.001069609 -0.009985388 -0.007605944 -0.0011330721 -0.010846445 0.0055556125 -0.0051182285
0.0038849618 -0.005906843 -0.0038624494 0.08784712 -3.797646e-05 -0.00016658638 -0.00022419936 -6.046038e-05
0.00025343837 0.00021057586 4.6408026e-05 9.749716e-05 -1.8092718e-05 -8.066308e-05 0.006065162 -0.059744656
0.08727544 0.33735514 0.16703303 -0.20374928 0.15298383 0.2330615 -0.038587634 0.050959468
-0.3305072 -0.0030148225 -6.590806e-05 -0.00019774641 -0.00016847791 -0.00010011262 0.00021564671 0.000253707
5.0867908e-05 0.00012225586 -5.8232563e-06 -7.264497e-05 0.007104493 0.09291267 0.17906138 -0.0055482495
0.0043975087 0.16273281 -0.14046842 0.09440832 0.03415365 0.15090905 -0.014551707 0.020323215
0.025080502 -0.08328183 -0.06433906 -0.008257327 -0.1321803 0.09025017 -0.015376923 -0.007816263
-0.061816346 -0.021192115 0.050227053 3.5458e-41 -8.5918e-41 1.879e-41 3.0906e-41 -4.4065e-41
4.2213e-41 7.4724e-41 -2.4869e-41 9.63e-42 3.0134e-41 -8.469595e-27 -3.4074943e-10 -6.9511415e-12
-7.649438e-10 5.975719e-11 -7.674714e-09 1.0905009e-09 3.5556702e-08 -9.026988e-09 -8.9260795e-12 -1.4438263e-14
-0.0009790682 7.216e-41 -6.5369e-41 -1.3451e-41 -1.3545e-41 7.8459e-41 5.0052e-41 6.6443e-41
-3.7643e-41 2.984e-41 -1.7871e-41 -1.7317662e-13 0.21481974 -0.10155499 0.33486116 -0.16043952
-0.1642309 -0.15749966 0.056925595 -0.1598551 0.1419336 0.40938866 -0.0019842503 2.446896e-39
-2.19324e-40 2.95923e-40 -3.69908e-40 3.4751983e-36 6.78093e-40 8.11841e-40 -2.21428e-40 3.85993e-40
-3.75001e-40 -1.0522433e-30 0.01588205 -0.11246366 0.10669001 -0.15231311 0.038008835 0.49745554
-0.2888502 -0.1737938 0.1412614 0.019685341 5.893967e-05 -0.048527133 0.109294675 -0.02955948
-0.011576282 -0.1204846 0.20965305 0.15493092 0.028001431 -0.5619918 0.20017849 0.0018584133
2.88533e-40 -1.17408e-40 -1.15164e-40 -1.6644e-40 2.0833e-40 1.56274e-40 -1.53203e-40 1.16333e-40
-9.0876e-41 1.77707e-40 -2.7972646e-07 -0.010130443 0.0029770727 0.14273335 -0.011036477 0.183403
-0.0077847107 0.07650739 0.1009377 0.051212985 0.044251915 0.015309071 1.0549e-41 2.887e-42
2.7812e-41 7.686e-42 4.8691e-41 1.09343e-40 -5.9161e-41 2.4795e-41 8.509e-42 4.836e-41
-7.47523e-10 -2.288457e-05 -6.4742155e-05 -6.398177e-05 -2.8350612e-05 6.5220636e-05 4.6581128e-05 1.3785753e-05
2.4719013e-05 -5.0281883e-06 -1.15507755e-05 0.001607321 -6.7220208e-06 -9.008056e-06 -1.439904e-06 3.5045443e-06
2.2586335e-05 3.682156e-05 -1.584936e-05 1.6613056e-06 4.6726095e-06 -1.3817926e-07 -1.5056717e-05 -0.031891555
-0.06765335 -0.061648026 -0.060066633 -0.11404462 -0.011195551 -0.015948424 -0.008401939 -0.0065258453
-0.00995086 0.0421581 -2.31913e-40 4.3316e-41 1.95791e-40 7.3947e-40 -2.317e-40 1.6001e-41
-7.136e-41 -7.2261e-41 1.2219357e-28 9.275966e-30 -0.0022451447 -8.237344e-06 -2.2111555e-05 -2.0286136e-05

net.0.bias f4 [50]
00000000: 78e7 203d 7a03 0000 65f8 5bbc 4ea1 263a
00000010: fde6 3338 b3c1 2c3b b46e 4f38 2e61 cfb8
00000020: c5c0 2e3a 240e 0000 d3c5 0280 2190 0000
00000030: 63aa 503c d387 0000 d0ed 493b d08c b7bc
00000040: 1424 0000 bbe3 40b9 b11e 0000 cbde 3b37
00000050: 408e 0200 ec66 013a cd77 0000 2262 ac36
00000060: dbb0 0180 e5c7 0f39 ab21 0280 0f81 03bc
00000070: 19c5 383a 38bf 9dbb 86b1 0300 c328 c33c
00000080: 85ab 8c8f f775 3cb9 e592 0080 f521 0080
00000090: ac6b cbb9 c505 0000 0b1f 0080 271e 4539
000000a0: 92b9 0100 7723 0296 a512 563a f76b 3d39
000000b0: 9922 473a e004 33b8 0d0f ac36 30a0 583a
000000c0: 7945 4ab9 0e6c 0080
0.039283246 1.247e-42 -0.013425921 0.0006356434 4.289205e-05 0.002636057 4.9455746e-05 -9.88863e-05
0.0006666298 5.073e-42 -2.54637e-40 5.1704e-41 0.012735936 4.8725e-41 0.0030811913 -0.022406012
1.2942e-41 -0.00018395383 1.101e-41 1.1197942e-05 2.347e-40 0.0004936296 4.2976e-41 5.1374236e-06
-1.55279e-40 0.00013712009 -1.95749e-40 -0.008026375 0.0007048413 -0.004814055 3.3919e-40 0.023823148
-1.3871133e-29 -0.00017973022 -5.2696e-41 -1.2181e-41 -0.000387994 2.07e-42 -1.1136e-41 0.00018798617
1.58406e-40 -1.0512507e-25 0.00081662304 0.00018064665 0.0007596403 -4.2681466e-05 5.1277516e-06 0.0008263616
-0.00019290102 -3.8763e-41

net.2.weight f4 [50, 50]
00000000: 2b5b 323e b32b e636 a5ed 2a3e 4f15 9a3c
00000010: b996 c63a a3f9 2f3e 8886 e73a 04e6 b63d
00000020: 3a6a 1cbd 3e38 0000 8a81 0180 3005 0080
00000030: 5f8c 2e3e c52a 0080 7da4 353e 3bb9 303e
00000040: 4504 0000 0bbb 1f3d cad0 0000 67d7 d139
00000050: 71bb 6b2a f1b3 d8bc 62c0 0100 9ad0 4139
00000060: 07a4 c410 2b89 a03b 0fad ff28 8c02 263e
00000070: 49f1 d23c 9923 283e 0dc8 2624 cc0e 2a3e
00000080: 97a4 0c80 bc55 383d 8d36 0000 a0bc 0380
00000090: 1899 f53d 9c7e 0080 b227 0380 b020 313c
000000a0: 9a7f 0080 0277 1c18 00d9 a3bd bdb1 d73b
000000b0: 7e2f 96bd b20d b73d a5db 4539 617c debc
000000c0: 58c7 743d 0763 0080 9045 0600 1e99 0080
000000d0: 5c0d 0000 e207 0500 6bdd 0980 1367 0800
000000e0: 9cee 0100 3766 0000 9fc8 0000 ca3d 0000
000000f0: 0a12 0180 7e31 2700 69e6 0c00 d5d1 0000
00000100: e396 0500 98dd 0400 afb0 0000 6e64 0380
00000110: eaa6 0000 0f17 0700 ce4a 0180 028e 0500
00000120: 36b9 0100 e3c5 0080 ae0b 0100 ab0e 0100
00000130: cd50 0180 5aa4 0000 1b54 0400 5b58 0400
00000140: 83d3 0080 bbfb 0500 96e2 0300 c381 0100
00000150: 933e 0080 b48d 0180 b763 0300 9dc2 0000
00000160: c345 0000 9b3d 0c80 9970 0100 a4eb 0080
00000170: 084d 0080 aad7 0980 e1b8 0080 b8b6 0280
00000180: 706b 0800 a76f 0200 594d 0180 89dd 0080
00000190: bf2b 3a84 2dd1 0080 163f 3180 3740 f883
000001a0: 8c1a 2900 88d3 1300 fbee 0b00 3502 3700
000001b0: a2bf 2200 52ab 2680 dbd5 0180 9702 0080
000001c0: 4399 3200 1d51 0080 4eb0 3c80 f75c 1983
000001d0: 2fc5 0000 0065 3600 fd80 0000 9750 0900
000001e0: 7f44 0380 0b10 7300 9ce1 0000 65e7 2300
000001f0: 510a 0180 b044 2380 d422 0080 6964 b403
00000200: 43ff fe00 a0ce 8202 4f63 0280 bbd5 1e80
00000210: 51d2 0100 23eb 5e80 f5be 0000 a57f 0280
00000220: 2bbb 9b83 2eeb 0000 4d1e 0080 4400 1e80
00000230: 69d0 0200 5abb 0080 bc59 4380 08ba 0680
00000240: eef2 0881 c30b fe83 fea6 0d80 9163 4280
00000250: a6a8 4700 b524 0000 9ec1 c43d 5ca5 d62e
00000260: f26c c63d 034a 283c 540a 6e3a dac8 c13d
00000270: 7050 8a3a 1c5f 303d 5fa1 bfbc 5529 0080
00000280: cd95 0180 04c6 0080 910f bf3d fc5b 0000
00000290: aa88 ca3d db76 c33d 9e49 0000 85b3 ea3c
000002a0: 5652 0000 8dac 7e39 96f6 3e99 aad3 67bc
000002b0: 6108 0100 54db e838 8737 0100 0d06 393b
000002c0: 21b3 c614 6519 cd3d 3869 6a3c 599f b63d
000002d0: b0d4 c095 5468 ba3d 8a53 2280 468f d73c
000002e0: a233 0080 f652 0400 8448 813d 4035 0000
000002f0: acad 0000 a943 c23b fb31 0280 2b67 a016
00000300: cb75 24bd b49d 773b 9b01 15bd 88b2 3a3d
00000310: f0c8 f038 4d6c 99bc 891d 103d df89 0080
00000320: 8c4d 0780 2e04 0080 94cd 0300 111b 0a00
00000330: 07a4 0a80 9a3d 0080 d317 0580 f9d9 0600
00000340: b382 0000 1e9c 0000 28e3 0080 5a29 0000
00000350: bc0e 0500 0390 0000 05a1 0380 053c 0580
00000360: a8cf 0080 a9c0 0500 c316 0000 fb3a 0080
00000370: bba0 0100 4340 0500 bc21 0680 2b12 0480
00000380: b62a 0100 6751 0400 1f2f 0d00 817b 0380
00000390: b773 2680 d8f9 0680 3a6f 0280 e553 0500
000003a0: 15f9 0100 ad6e 0480 8a30 0000 ac0a 0000
000003b0: 7b2c 1b80 a993 0000 6dda 0080 a453 0900
000003c0: cf0f 0000 95ef 0180 7679 0b00 40b2 0800
000003d0: 4273 0a00 f1de 0b00 1f7a 0480 f600 0580
000003e0: 62f2 0000 aa89 0080 c5af efbd f50f 9cb1
000003f0: 7f9f efbd 65a8 a33c cf18 9f3a ea69 f3bd
0.1741759 6.8596214e-06 0.16692217 0.018808989 0.001515112 0.17185073 0.0017663995 0.08930591
-0.038187243 2.0176e-41 -1.38305e-40 -1.861e-42 0.17045735 -1.5343e-41 0.17738529 0.1725816
1.532e-42 0.038996737 7.49e-41 0.00040024074 2.0937225e-13 -0.02645299 1.6085e-40 0.00018483624
7.756109e-29 0.004899164 2.838574e-14 0.16211909 0.02574982 0.1641983 3.6164962e-17 0.16607207
-1.16107e-39 0.045003638 1.9569e-41 -3.43172e-40 0.11992091 -4.5419e-41 -2.89746e-40 0.010811016
-4.5775e-41 2.0222611e-24 -0.08000374 0.0065824674 -0.07333277 0.08938159 0.00018869208 -0.027158918
0.05976042 -3.5524e-41 5.75967e-40 -5.4928e-41 4.792e-42 4.62005e-40 -9.05949e-40 7.7166e-40
1.77432e-40 3.6668e-41 7.1969e-41 2.2166e-41 -9.8307e-41 3.599339e-39 1.184682e-39 7.5274e-41
5.13305e-40 4.46835e-40 6.3382e-41 -3.11534e-40 5.9877e-41 6.5112e-40 -1.1867e-40 5.1012e-40
1.58277e-40 -7.0988e-41 9.6025e-41 9.7097e-41 -1.20821e-40 5.8958e-41 3.97513e-40 3.99038e-40
-7.5876e-41 5.49481e-40 3.5679e-40 1.38385e-40 -2.2447e-41 -1.42669e-40 3.11277e-40 6.9814e-41
2.5026e-41 -1.124126e-39 1.32228e-40 -8.4532e-41 -2.7634e-41 -9.03885e-40 -6.6322e-41 -2.49218e-40
7.73225e-40 2.23724e-40 -1.19583e-40 -7.9472e-41 -2.1884282e-36 -7.5038e-41 -4.52257e-39 -1.4590873e-36
3.774779e-39 1.820758e-39 1.09592e-39 5.051744e-39 3.191152e-39 -3.551207e-39 -1.68552e-40 -9.29e-43
4.646755e-39 -2.9098e-41 -5.573376e-39 -4.5069377e-37 7.0736e-41 4.995349e-39 4.6272e-41 8.5543e-40
-3.00078e-40 1.0566837e-38 8.0933e-41 3.297251e-39 -9.5536e-41 -3.238883e-39 -1.2494e-41 1.0602502e-36
2.3417787e-38 1.922038e-37 -2.19296e-40 -2.831737e-39 1.67283e-40 -8.716888e-39 6.8502e-41 -2.29461e-40
-9.153053e-37 8.4367e-41 -1.087e-41 -2.75516e-39 2.58434e-40 -6.7209e-41 -6.185169e-39 -6.17748e-40
-2.5153548e-38 -1.4931479e-36 -1.253767e-39 -6.09686e-39 6.58082e-39 1.3168e-41 0.09607242 9.760967e-11
0.096887484 0.010271552 0.00090805185 0.094621375 0.0010552537 0.043059453 -0.023392377 -1.4827e-41
-1.45574e-40 -7.1035e-41 0.09329141 3.2998e-41 0.09889348 0.09544154 2.6409e-41 0.028650055
2.9537e-41 0.00024287608 -9.8725674e-24 -0.014149586 9.4841e-41 0.00011103475 1.11755e-40 0.0028232366
2.0063545e-26 0.10014609 0.014307313 0.08917112 -7.7883744e-26 0.0910193 -3.152375e-39 0.026313435
-1.8522e-41 3.97103e-40 0.063126594 1.9103e-41 6.2302e-41 0.005928476 -2.016e-40 2.5914502e-25
-0.0401514 0.0037783207 -0.036378484 0.045580417 0.00011481519 -0.0187284 0.035184417 -4.9459e-41
-6.70667e-40 -1.5e-42 3.49254e-40 9.28065e-40 -9.77197e-40 -2.2098e-41 -4.67724e-40 6.29207e-40
4.6886e-41 5.6004e-41 -8.1488e-41 1.4834e-41 4.64463e-40 5.1662e-41 -3.3327e-40 -4.80708e-40
-7.4493e-41 5.28291e-40 8.165e-42 -2.1158e-41 1.49495e-40 4.8223e-40 -5.63115e-40 -3.7386e-40
1.07157e-40 3.96544e-40 1.210765e-39 -3.19811e-40 -3.53126e-39 -6.4064e-40 -2.23572e-40 4.89273e-40
1.81189e-40 -4.07045e-40 1.7413e-41 3.828e-42 -2.495515e-39 5.297e-41 -7.8356e-41 8.56524e-40
5.671e-42 -1.77781e-40 1.053762e-39 7.98628e-40 9.59702e-40 1.090167e-39 -4.11151e-40 -4.59522e-40
8.695e-41 -4.9385e-41 -0.11703447 -4.5420117e-09 -0.11700343 0.019977758 0.0012138131 -0.11885436

net.2.bias f4 [50]
00000000: 0418 9e3a 81cd 0780 2155 1600 c771 453a
00000010: 8498 0200 a54a df3a 94da 0400 d7a8 0100
00000020: c3d0 8f3a 5130 ed39 1283 c101 23b0 0180
00000030: 2959 0000 a220 033b 31a9 eb3a b9ee 1c00
00000040: a8fe 0380 304b 073b b6d0 833a 9211 243b
00000050: 44ce 0000 878f 453a adfd 0480 5322 d83a
00000060: e26f 7c3a ce73 283a 209e be3a 4ae7 873a
00000070: 9bab 0580 f4ac 0380 0d80 8d3a f9f3 0080
00000080: 14b9 4b3a 2872 0080 20ac 0780 cfca cf3a
00000090: f21e d83a fe4f 0200 bbd0 393a 3170 783a
000000a0: ed4f 0780 d3f0 bd3a c69d e83a 0d56 0200
000000b0: 0450 0400 c99a 1f3a 8358 0080 8a93 0480
000000c0: 372a 0000 65c3 e83a
0.00120616 -7.1657e-40 2.05092e-39 0.0007531908 2.38383e-40 0.0017035796 4.45753e-40 1.52404e-40
0.001097225 0.0004524016 7.108508e-38 -1.55021e-40 3.1985e-41 0.0020008464 0.00179795 2.657031e-39
-3.6686e-40 0.002064418 0.0010056708 0.0025034887 7.3994e-41 0.0007536341 -4.58344e-40 0.0016489722
0.0009629709 0.00064259476 0.0014542975 0.0010368612 -5.20738e-40 -3.3755e-40 0.0010795608 -8.7521e-41
0.0007771414 -4.0952e-41 -7.04595e-40 0.0015853288 0.0016488715 2.12367e-40 0.0007088293 0.0009477167
-6.7152e-40 0.0014491327 0.0017747215 2.1454e-40 3.96046e-40 0.00060884334 -3.1752e-41 -4.20269e-40
1.5144e-41 0.0017758427

net.4.weight f4 [1, 50]
00000000: 77cd 10bf 92e9 0c80 6e94 488a 6254 a1be
00000010: 04f1 068c 5e96 c83e 8e93 0680 f41e 0200
00000020: 4045 03bf 36d2 c93d 829c 161a e97d 0b80
00000030: 3fcb 25b7 4b19 e63e 180a d13e a8bf 2005
00000040: dbc6 0a80 6058 ec3e 4247 eebe af6d 023f
00000050: 4925 1f90 7afe adbe d194 6b80 013f c23e
00000060: a4f8 efbe 3abd eabe 0534 a93e 3f50 fabe
00000070: 6e33 0980 4799 0980 5f8b e7be d8a4 0000
00000080: 5dc2 adbe e194 0000 ecdb 0e00 b66b b63e
00000090: 83de bc3e 818b 0280 952a dabe 5ed4 c5be
000000a0: 5b36 0980 ae6b a13e e5ee c33e 24e7 1480
000000b0: 6b9a 2880 d2da b7be 9604 0080 99e0 0300
000000c0: c5e1 0180 d710 c93e
-0.56563514 -1.185815e-39 -9.657566e-33 -0.3150969 -1.0395513e-31 0.3917722 -6.03946e-40 1.94775e-40
-0.5127754 0.09854548 3.11457e-23 -1.055359e-39 -9.882088e-06 0.44941172 0.40828013 7.5583655e-36
-9.89691e-40 0.46161175 -0.4653874 0.50948614 -3.1385944e-29 -0.33983213 -9.879783e-39 0.37938693
-0.46869385 -0.45847493 0.330475 -0.48889348 -8.44969e-40 -8.81505e-40 -0.4522352 5.9135e-41
-0.3393735 5.3408e-41 1.36459e-39 0.35629052 0.36888513 -2.33716e-40 -0.42610613 -0.38638586
-8.46019e-40 0.31527466 0.382682 -1.919628e-39 -3.728815e-39 -0.35909134 -1.645e-42 3.56077e-40
-1.72826e-40 0.3927066
